ep=90_lv=0.37.pth (torch, 720181 bytes, 67 tensors)

model.conv1.weight f4 [16, 3, 3, 3]
0	0xbf208767	-0.6270661
1	0xbd3ea674	-0.04654546
2	0x3ebee29a	0.37282258
3	0xbf55d6dd	-0.8353098
4	0x3e08ca7b	0.1335849
5	0x3f2842c1	0.6572686
6	0xbe880275	-0.26564375
7	0x3d9df737	0.07713168
8	0x3d78202d	0.06057756
9	0xbf4654de	-0.7747325
10	0x3e6249a5	0.22098406
11	0x3f5449e4	0.8292525
12	0xbf8efb81	-1.1170503
13	0x3e903985	0.28168884
14	0x3f924044	1.1425862
15	0xbf039914	-0.51405454
16	0x3e131057	0.14361702
17	0x3e9e700e	0.30944866
18	0xbed2ccc9	-0.41171864
19	0x3e521e79	0.20519437
20	0x3ec7498e	0.38923305
21	0xbf62151d	-0.88313466
22	0x3e614b3a	0.22001353
23	0x3f26b570	0.651206
24	0xbf1afc33	-0.60541075
25	0x3d51301e	0.05107128
26	0x3e15172c	0.1455962
27	0x3e700fda	0.23443547
28	0x3e9a3ca0	0.30124378
29	0x3ed0337a	0.40664274
30	0x3d02e203	0.031953823
31	0x3d268ce6	0.040661715
32	0x3e5b3260	0.21405935
33	0xbe412acb	-0.1886398
34	0xbeec56b9	-0.46159914
35	0xbea65cc0	-0.32492638
36	0x3e987db3	0.297834
37	0x3e08e49a	0.13368455
38	0x3e5c077e	0.21487233
39	0x3e28af75	0.16473182
40	0x3e3626b2	0.17788199
41	0x3e83a865	0.25714412
42	0xbd3a59d4	-0.045495823
43	0xbe316fea	-0.17327848
44	0xbe238a1c	-0.15970653
45	0xbf4656b3	-0.7747604
46	0xbf6dac21	-0.9284077
47	0xbeffe571	-0.49979737
48	0xbf011ee4	-0.5043776
49	0xbeb70b2d	-0.35750714
50	0x3e0750ea	0.1321446
51	0x3e79b2e7	0.24384652
52	0x3f0ceca9	0.55048615
53	0x3f4adca5	0.79242927
54	0xbe45db6d	-0.19321986
55	0xbe8ac3a6	-0.27102393
56	0x3d044cdf	0.032299872
57	0x3e53d616	0.20687136
58	0x3e342853	0.17593507
59	0x3e148f65	0.14507826
60	0xbd7b037e	-0.061282627
61	0xbe6231b2	-0.2208927
62	0xbeaf6063	-0.34253225
63	0xbe218314	-0.15772659
64	0xbe881ae1	-0.26583007
65	0x3dbbf218	0.09177035
66	0x3eda2332	0.42604977
67	0x3f153576	0.582847
68	0x3f385fe3	0.7202131
69	0x3dfd346d	0.12363515
70	0x3e7f25ac	0.24916714
71	0x3ea04dbd	0.3130931
72	0xbe595a94	-0.21225959
73	0xbeca8803	-0.39556894
74	0xbce0ce88	-0.027442232
75	0x3e49c13b	0.19702618
76	0x3e8ea327	0.2785885
77	0x3ec7ca33	0.39021453
78	0xbe4cd223	-0.20002036
79	0xbe13e1af	-0.1444156
80	0xbd2b69fe	-0.04184913
81	0x3f3c466c	0.73544955
82	0x3fa9df75	1.3271319
83	0xbe8f7b82	-0.28023916
84	0x3ef6b66e	0.48186058
85	0xc00bf69e	-2.1869273
86	0x3e9a06e6	0.30083388
87	0x3e3ac040	0.182374
88	0xbebccd06	-0.3687517
89	0xbeb708fd	-0.35749045
90	0xbed0a159	-0.40748098
91	0x3e4f7e25	0.20262964
92	0x3e985db4	0.2975899
93	0xbde476e7	-0.11155491
94	0xc021353a	-2.5188737
95	0x3fab677a	1.3390954
96	0x3e36ac85	0.17839248
97	0x3f048697	0.5176787
98	0x3f262e2a	0.6491419
99	0xbea264cb	-0.31717524
100	0x3eb90879	0.36139277
101	0xbef3d1e3	-0.47621068
102	0x3ec5c1b9	0.3862436
103	0xbf8ab4cb	-1.0836424
104	0x3e8d80a7	0.27637216
105	0x3ed66046	0.41870326
106	0x3f045dd0	0.51705647
107	0xbd6fd988	-0.058557063
108	0xbdcc5806	-0.09977727
109	0xbed2b853	-0.41156253
110	0x3ee9a0de	0.45630544
111	0xbe6f1055	-0.23346074
112	0xbee7413e	-0.45166963
113	0x3fa2c81f	1.2717322
114	0x3eae68ef	0.34064433
115	0xbe15a2d4	-0.14612895
116	0x3e3c18fd	0.18368907
117	0xbec23575	-0.3793141
118	0xbf3f9598	-0.74837637
119	0x3f1050dd	0.5637339
120	0xbf484abf	-0.78239053
121	0xbf8cc484	-1.0997472
122	0x3f966eab	1.1752523
123	0xbd6bb2c3	-0.057543527
124	0xbeea78e4	-0.45795357
125	0x3e4f4032	0.20239332
126	0xbdfb656d	-0.12275205
127	0xbe2e715a	-0.17035428
128	0x3f38c302	0.7217256
129	0xbf123ff3	-0.5712883
130	0xbefcea80	-0.4939766
131	0x3f9b29e6	1.2122161
132	0xbe5919f9	-0.21201314
133	0xbe951fa1	-0.29125693
134	0x3f04d966	0.51894224
135	0x3ecdd01c	0.40197837
136	0x3f58c86a	0.8468081
137	0x3f113743	0.5672495
138	0x3e980f41	0.29699138
139	0x3eca9d55	0.3957316
140	0xbc561efe	-0.013068913
141	0xbebe3ade	-0.37154287
142	0xbf55aee6	-0.8347
143	0xbf5890d1	-0.8459597
144	0x3e213999	0.15744628
145	0x3f4294c4	0.7600825
146	0x3efcd769	0.49383095
147	0x3e2d170b	0.16903321
148	0x3f0b2aba	0.5436207
149	0x3db4a990	0.08821404
150	0xbf1728b7	-0.590465
151	0xbf69adbe	-0.91280735
152	0xbf7a2654	-0.97714734
153	0x3ccb46ca	0.024814028
154	0x3e58649b	0.21132128
155	0x3deb1b15	0.11479775
156	0x3e3be97f	0.1835079
157	0x3ef52e50	0.47886896
158	0x3e99e4ae	0.3005728
159	0xbebdf713	-0.37102565
160	0xbeefcfd4	-0.46838248
161	0xbeeb80cd	-0.45996705
162	0xbaf2ba8d	-0.0018518731
163	0xbd882ce5	-0.06649188
164	0x3d6d3ac0	0.057917356
165	0xbd50558d	-0.050862838
166	0xbee2e61e	-0.4431619
167	0xbdf1acf7	-0.118005686
168	0x3da007a6	0.07813959
169	0xbe267715	-0.16256364
170	0xbcb5c641	-0.022189261
171	0xbd33b0dc	-0.043869838
172	0xbd634258	-0.055483192
173	0x3cd9dd79	0.026594864
174	0xbe81f2de	-0.25380605
175	0xbf076c02	-0.5289918
176	0xbe6575c7	-0.2240821
177	0xbdf0de44	-0.11761144
178	0xbe9be1df	-0.30445763
179	0x3ca0eab5	0.019643167
180	0x3e7a6662	0.24453118
181	0x3e894c9d	0.26816264
182	0x3eb087a5	0.3447849
183	0x3c4c3677	0.012464157
184	0xbe82a5c3	-0.2551709
185	0x3dc6bb2f	0.09703671
186	0xbcb28894	-0.021793641
187	0xbdf8ac94	-0.12142292
188	0x3e8b2bce	0.27181858
189	0x3db60b82	0.08888914
190	0x3eaa7060	0.3328886
191	0x3e28b76b	0.16476218
192	0x3e6f4e33	0.23369674
193	0x3e0ed4b0	0.13948321
194	0x3e1814bb	0.14851658
195	0x3e444ef4	0.19170743
196	0x3baa5547	0.005198154
197	0x3d0682c7	0.032839563
198	0x3d460016	0.048339926
199	0xbd2ea147	-0.042634275
200	0xbe21743b	-0.15766995
201	0xbda7e160	-0.08197284
202	0xbeef977f	-0.4679527
203	0xbeccb5f2	-0.39982563
204	0x3df2b1f4	0.11850348
205	0xbe91dd3a	-0.28489095
206	0xbe704682	-0.23464397
207	0xbd15d5d6	-0.036580883
208	0xbdc1aadc	-0.09456417
209	0xbe16e90e	-0.14737341
210	0xbe033317	-0.12812458
211	0xbec84402	-0.39114386
212	0xbeb7d2f4	-0.35903132
213	0xbd5293d6	-0.05141052
214	0xbea7298c	-0.32648885
215	0xbe90b3a3	-0.28262052
216	0xbe997149	-0.29969242
217	0xbe999d3a	-0.30002767
218	0xbe611dad	-0.21983977
219	0xbec3b7fa	-0.382263
220	0xbf138a50	-0.57632923
221	0xbe0b32de	-0.13593623
222	0xbe01edd6	-0.12688383
223	0xbeb27aab	-0.34859213
224	0xbe39d870	-0.1814897
225	0x3ee54540	0.44779396
226	0x3f0d276c	0.5513828
227	0x3e92a7ce	0.2864365
228	0x3ecd81cd	0.40138093
229	0x3ed2d653	0.4117914
230	0x3eff93a2	0.49917322
231	0x3e7d0525	0.24708994
232	0x3e53a3bd	0.2066793
233	0x3e67db4e	0.22642252
234	0xbde01f44	-0.109434634
235	0xbe2df680	-0.16988564
236	0xbdbd8cfb	-0.092554055
237	0xbca8479e	-0.020541962
238	0xbe86d108	-0.26331353
239	0x3b9dc191	0.0048143347
240	0xbad1b7c0	-0.0016000196
241	0xbe93945e	-0.28824133
242	0xbe69d3c2	-0.22834685
243	0x3f1b3a55	0.6063588
244	0x3ea7e00a	0.32788116
245	0x3dff224f	0.12457716
246	0x3d78d563	0.060750376
247	0x3f89cfce	1.0766542
248	0xbecbc694	-0.3979994
249	0x3de8d9fb	0.113697015
250	0xbda7ce55	-0.081936516
251	0x3e4c34bd	0.19941993
252	0xbea00729	-0.31255463
253	0xbe4505bc	-0.19240469
254	0xbe0b9fce	-0.1363518
255	0xbf801849	-1.0007411

model.bn1.weight f4 [16]
0	0x3f0d6982	0.5523912
1	0x3efe1af1	0.4962993
2	0x3f3c3d07	0.7353062
3	0x3f33998b	0.7015616
4	0x3efb6d00	0.49106598
5	0x3f0f8aa0	0.560709
6	0x3f692a0a	0.9107977
7	0x3f223de3	0.6337568
8	0x3ef12dc9	0.47105244
9	0x3f158d9e	0.58419216
10	0x3f156a8e	0.58365715
11	0x3f12d9ec	0.5736377
12	0x3f33fc11	0.703065
13	0x3f2ffed7	0.6874823
14	0x3f330df2	0.69943154
15	0x3ed1c0a2	0.4096728

model.bn1.bias f4 [16]
0	0x3f334206	0.7002262
1	0xbe44bc2e	-0.1921241
2	0xbe3ec553	-0.1862996
3	0x3fccb798	1.5993528
4	0x3f11fe8b	0.57029027
5	0x3f2b9ac3	0.6703302
6	0xbf6256c1	-0.88413626
7	0xbe751765	-0.23934706
8	0xbeb52663	-0.3538085
9	0x3f3703b0	0.7149
10	0x3d35d9bd	0.044397105
11	0x3eddd2e8	0.4332497
12	0xba321d74	-0.000679455
13	0xbe48db3c	-0.19614881
14	0x3ee55964	0.44794762
15	0x3f1070a8	0.564219

model.bn1.running_mean f4 [16]
0	0x3c08e301	0.008354903
1	0xbb03f0d7	-0.0020132565
2	0xbc05f79e	-0.008176712
3	0xbc910a94	-0.01770524
4	0xbbb4aa1f	-0.005513444
5	0x3cc3dd29	0.023909168
6	0x3c014fdb	0.007892574
7	0x3cc87389	0.024469154
8	0x3c2afef7	0.010436765
9	0xbc6c14ab	-0.0144092245
10	0x3c80654c	0.015673302
11	0xbcb9563d	-0.02262413
12	0x3b7036be	0.0036653723
13	0x3b8b9f01	0.004260898
14	0xbccf3600	-0.025294304
15	0xbae49030	-0.0017437991

model.bn1.running_var f4 [16]
0	0x410365c5	8.212346
1	0x3f439813	0.7640392
2	0x401f7d0a	2.4920068
3	0x3ff1ea64	1.8899655
4	0x40ccee68	6.4041023
5	0x41040375	8.250844
6	0x400cad14	2.1980639
7	0x40849275	4.142878
8	0x3f760843	0.96106356
9	0x402326a6	2.549234
10	0x404822d7	3.1271265
11	0x4126b8dc	10.420132
12	0x4043d682	3.0599675
13	0x3ff8aacd	1.9427124
14	0x4033600d	2.8027375
15	0x3fc789ec	1.5588965

model.layer1.0.conv1.weight f4 [16, 16, 3, 3]
0	0x3cdc54f7	0.026895983
1	0xbc9c6c3b	-0.019094577
2	0x3df373da	0.11887331
3	0x3dab2a37	0.08357661
4	0x3dc122c3	0.094304584
5	0x3e31f6ac	0.17379254
6	0x3d929d08	0.071588576
7	0xbd03f899	-0.032219503
8	0x3d04207b	0.03225754
9	0xbda511f8	-0.08060068
10	0x3d7b644e	0.061374955
11	0x3e29449a	0.16530076
12	0x3cf64609	0.030062692
13	0x3e2bbdf4	0.1677168
14	0x3e29aab8	0.1656903
15	0xbcdde2e4	-0.027085729
16	0x3d27323c	0.04081939
17	0x3e41d621	0.1892934
18	0xbda91367	-0.08255654
19	0xbe49d1e7	-0.19708978
20	0xbe118f90	-0.14214921
21	0xbdfc9511	-0.1233312
22	0xbd5a69b3	-0.05332346
23	0x3da4e2ce	0.08051072
24	0x39e50ef6	0.0004368943
25	0xbbb968da	-0.0056582512
26	0x3d4e23bb	0.050327044
27	0x3e100372	0.14063814
28	0x3d12f984	0.035882488
29	0x3e0e3a84	0.1388951
30	0xbc87a379	-0.016557442
31	0xbd4b2535	-0.04959603
32	0xbe512fdc	-0.20428413
33	0x3bb2e0a8	0.00545891
34	0x3e772699	0.24135818
35	0xbd87d79e	-0.066329226
36	0x3dfaa1c8	0.122378886
37	0xbc233c57	-0.009963117
38	0x3e81a95b	0.2532452
39	0x3e13840d	0.14405842
40	0x3e4a2a7c	0.19742769
41	0x3e50576d	0.2034585
42	0xbc93d919	-0.018047856
43	0x3d46d647	0.048544195
44	0x3cd6bca8	0.026213005
45	0xbe6e5476	-0.23274407
46	0xbea3943d	-0.31949034
47	0xbe873836	-0.26410073
48	0xbdce9781	-0.10087491
49	0xbe0bb224	-0.13642174
50	0x3cb2f384	0.021844633
51	0xbe137771	-0.14401032
52	0xbe0635f1	-0.13106515
53	0x3e2c7db2	0.16844824
54	0x3e3b6530	0.18300319
55	0x3e1cf938	0.15329444
56	0xbcd4fad3	-0.025998509
57	0x3de6523d	0.112461545
58	0x3db17c9a	0.08666344
59	0xbd036054	-0.032074288
60	0x3e53a172	0.20667055
61	0x3e17acda	0.14812031
62	0x3dbb41ec	0.09143433
63	0x3e7ee4a5	0.24891908
64	0x3e5b056c	0.21388787
65	0x3e4e88db	0.20169394
66	0xbcab37a9	-0.020900564
67	0xbcad3808	-0.021144882
68	0x3cb692f6	0.022286873
69	0xbe1fd182	-0.15607265
70	0xbe34347f	-0.1759815
71	0xbe39940e	-0.18122885
72	0x3ce504bc	0.02795636
73	0x3bcd83c5	0.0062718117
74	0xbdc621c3	-0.09674408
75	0x3cf9a278	0.030472979
76	0x3d0cdd03	0.03439046
77	0xbcf2d6b5	-0.029643396
78	0x3df54988	0.119769156
79	0x3e12dfc5	0.14343174
80	0x3d114a66	0.035471343
81	0xbe24fd79	-0.16112317
82	0xbd84cf06	-0.06484799
83	0xbd778b73	-0.060435724
84	0x3d8ad7a4	0.067794114
85	0x3e1a7565	0.15083845
86	0x3ea236da	0.31682473
87	0x3cca2c8f	0.02467945
88	0xbdbe10aa	-0.09280522
89	0x3e142928	0.14468825
90	0x3e0c3f84	0.13696104
91	0x3d5bdcc9	0.053677354
92	0xbbf9abf5	-0.007619376
93	0xbd9a4c1a	-0.075340465
94	0xbc9f8a70	-0.019475192
95	0xbd9e03f0	-0.07715595
96	0xbea1a019	-0.31567457
97	0xbe84791e	-0.25873655
98	0xbe5b7f6b	-0.21435325
99	0xbe5f292c	-0.2179305
100	0xbea9394c	-0.33051527
101	0xbeba1f8c	-0.36352193
102	0x3d828104	0.06372264
103	0x3d2fdc23	0.042934548
104	0xbdc91a48	-0.09819466
105	0x3ea8e851	0.32989743
106	0x3e9ac449	0.3022788
107	0x3e0c07f9	0.13674916
108	0xbe74bc20	-0.23899889
109	0xbe8b90fb	-0.2725905
110	0xbd384202	-0.044984825
111	0xbe1bed2e	-0.15227196
112	0xbe8d9d8d	-0.27659264
113	0x3aba0606	0.0014192469
114	0x3e6792e7	0.22614633
115	0x3cc8a69c	0.024493508
116	0x3d27c68a	0.040960826
117	0x3dc5f685	0.096661605
118	0x3e25a90b	0.16177766
119	0x3d07c187	0.033143546
120	0x3bcb759e	0.0062090894
121	0x3d5d6420	0.054050565
122	0x3c27d504	0.010243658
123	0x3e1be778	0.15225017
124	0x3dd2007d	0.102539994
125	0x3da8141c	0.082069606
126	0xbc58062c	-0.013185065
127	0x3e67f6d3	0.2265275
128	0x3e883be0	0.2660818
129	0xbde63d6e	-0.112421855
130	0x3de03244	0.109470874
131	0x3e999ba5	0.3000156
132	0xbe9a917f	-0.3018913
133	0xbddf63e8	-0.109077275
134	0x3ca754de	0.02042621
135	0xbe2a6b7e	-0.16642568
136	0x3cfb233e	0.030656453
137	0x3e134971	0.14383484
138	0xbe3572ab	-0.17719524
139	0xbdaf4a97	-0.08559149
140	0x3d09b65a	0.03362117
141	0x3d87ee98	0.06637305
142	0x3d9fbd71	0.07799805
143	0x3e1a2559	0.1505331
144	0xbcac3c57	-0.021024866
145	0xbdd91a33	-0.106007
146	0x3d9a2b89	0.07527835
147	0x3d3ef83b	0.04662345
148	0x3cd502af	0.026002256
149	0x3d94a283	0.07257559
150	0x3cf119a7	0.029431177
151	0x3d8c6782	0.0685568
152	0x3d930b21	0.07179857
153	0x3e551493	0.2080863
154	0x3e5a8fff	0.21343993
155	0x3e5d9c4a	0.21641651
156	0x3e15e208	0.14637005
157	0x3e03e16b	0.12878959
158	0x3df99d93	0.12188258
159	0x3da7e8a0	0.081986666
160	0x3c253765	0.010084008
161	0x3c6ac822	0.014329942
162	0x3e3fc2fc	0.18726724
163	0x3e537266	0.20649108
164	0x3e98d6be	0.29851335
165	0x3df07efc	0.1174297
166	0x3e19a59e	0.15004584
167	0x3e0219a2	0.1270509
168	0x3db97fb1	0.09057558
169	0x3e38b657	0.18038307
170	0x3e22b36a	0.15888754
171	0x3e7e280f	0.24819969
172	0x3eafc79a	0.3433197
173	0x3d9d87a6	0.076918885
174	0xbe201ca6	-0.15635929
175	0xbc2ab951	-0.010420159
176	0xbd6f3e79	-0.058409188
177	0x3d7e1c9e	0.06203901
178	0xbd814388	-0.06311709
179	0xbd044913	-0.03229625
180	0x3a284d9c	0.0006420256
181	0x3d76898a	0.06018976
182	0x3ddca902	0.10774423
183	0x3d5bc377	0.053653207
184	0x3dd103c4	0.10205796
185	0x3d3dda82	0.046350963
186	0x3d0f831e	0.035037152
187	0x3d34c594	0.044133738
188	0x3c932910	0.017963916
189	0x3e28deb3	0.16491203
190	0x3d4c6b10	0.04990679
191	0xbd69b79e	-0.057059877
192	0x3dab5eaa	0.08367665
193	0x3d407d03	0.04699422
194	0x3dd19d6d	0.10235105
195	0x3b9eca0b	0.0048458627
196	0xbd7f6290	-0.062349856
197	0xbda708d3	-0.0815598
198	0xbc94c411	-0.018159898
199	0xbd550e7d	-0.05201577
200	0xbc865e58	-0.016402408
201	0x3c08e50b	0.008355389
202	0x3ce32803	0.02772904
203	0x3db287ea	0.0871733
204	0x3d92ec3d	0.07173965
205	0x3c6619ff	0.014044284
206	0x3de88c74	0.11354914
207	0x3d761dd6	0.060087048
208	0x3da0f3c2	0.07858993
209	0x3d8d15c0	0.06888914
210	0x3d279b85	0.0409198
211	0x3dee36f8	0.11631578
212	0x3db19436	0.08670847
213	0x3d1d929b	0.038469892
214	0x3d4f2f08	0.050581962
215	0x3d5cf890	0.053947985
216	0x3e34659d	0.17616887
217	0x3e01cda6	0.12676105
218	0x3de80b67	0.113303
219	0x3e626d7d	0.22112079
220	0x3deef942	0.11668636
221	0x3e01e632	0.12685469
222	0x3e19267a	0.14956084
223	0x3d84f8ad	0.06492744
224	0x3decebe3	0.11568429
225	0x3e066c44	0.13127238
226	0x3e308144	0.17236811
227	0x3e3949c4	0.18094546
228	0xbd2fb619	-0.04289827
229	0x3cb73f97	0.02236919
230	0x3dbd1dec	0.09234223
231	0xbe2ea519	-0.17055167
232	0xbded2398	-0.115790546
233	0xbdb27671	-0.08713997
234	0x3b501633	0.0031751513
235	0x3d8b351f	0.067972414
236	0x3dc4e5dc	0.09614155
237	0x3cf6f1c2	0.030144576
238	0x3d5762e8	0.05258456
239	0x3d901c43	0.070366405
240	0x3d481187	0.04884484
241	0x3cabb0f7	0.020958407
242	0xbca93ab9	-0.020657884
243	0x3e52baf1	0.20579125
244	0x3e27d17c	0.16388506
245	0x3e97770b	0.2958301
246	0x3e47a624	0.19496971
247	0x3e542f16	0.20721087
248	0x3ee43e3d	0.44578734
249	0x3d87aae2	0.0662439
250	0x3d85b52f	0.06528699
251	0x3e8be2f1	0.2732158
252	0xbde8717b	-0.1134977
253	0xbd25c74d	-0.04047327
254	0xbdb53177	-0.08847325
255	0x3da12699	0.0786869

model.layer1.0.bn1.weight f4 [16]
0	0x3efd8023	0.49511823
1	0x3f4b9081	0.7951737
2	0x3f641eec	0.89109683
3	0x3f3dcba1	0.7413884
4	0x3f666ea9	0.90012604
5	0x3f1cc4f3	0.6123802
6	0x3f66c3f1	0.9014273
7	0x3f3696ba	0.7132374
8	0x3f4017d5	0.75036365
9	0x3f745379	0.9543987
10	0x3f2adba1	0.6674138
11	0x3f65689e	0.8961276
12	0x3f5dfe70	0.86716366
13	0x3f5c2ed2	0.8600894
14	0x3f5f34e4	0.8719008
15	0x3f4ffc8f	0.8124475

model.layer1.0.bn1.bias f4 [16]
0	0x3e8331c1	0.25623897
1	0xbf2a292f	-0.6646909
2	0x3e290dee	0.1650922
3	0x3e5ad096	0.21368632
4	0x3ea311ba	0.31849462
5	0x3e5014ec	0.20320481
6	0xbda23fbc	-0.079223126
7	0x3f18d2d2	0.59696686
8	0x3e99a15d	0.30005923
9	0x3eef99f6	0.4679715
10	0x3f3415c3	0.70345706
11	0x3f7cb402	0.9871217
12	0x3f38558c	0.72005534
13	0xbf4d44e6	-0.80183256
14	0xbd5e8677	-0.054327454
15	0xbe831d42	-0.2560826

model.layer1.0.bn1.running_mean f4 [16]
0	0x3f491ce0	0.78559685
1	0x406a5714	3.6615648
2	0xbf95dc31	-1.1707822
3	0xc01a02d2	-2.4064221
4	0xbf77703a	-0.9665562
5	0xbfa4761d	-1.2848545
6	0x3f6ae228	0.9175134
7	0x40178d85	2.3680127
8	0xc0a235ef	-5.0690837
9	0xc05972c8	-3.3976307
10	0xbf9afc63	-1.2108272
11	0xbfc65911	-1.5495931
12	0xbf378c7d	-0.71698743
13	0x4000c8c4	2.0122538
14	0x3f539dc2	0.82662594
15	0xbfcd5707	-1.6042184

model.layer1.0.bn1.running_var f4 [16]
0	0x3fa56e9d	1.2924381
1	0x3fead0fd	1.8345028
2	0x3fd93de6	1.6972015
3	0x40799e3a	3.9002824
4	0x409bf109	4.873173
5	0x3fb5ecdb	1.4212908
6	0x3fa657e8	1.2995577
7	0x407b6c0d	3.92847
8	0x4067b416	3.6203666
9	0x40785934	3.8804445
10	0x3fb43b7c	1.4080653
11	0x4026f390	2.6086159
12	0x4015e5f2	2.3421597
13	0x3fa3cdcd	1.279718
14	0x40a33301	5.099976
15	0x3fc96873	1.5735

model.layer1.0.conv2.weight f4 [16, 16, 3, 3]
0	0x3d7f537e	0.062335484
1	0x3cb332fd	0.021874899
2	0xbd963339	-0.07333989
3	0x3e282890	0.16421723
4	0x3deb83bf	0.11499738
5	0x3d659600	0.056051254
6	0xbc558406	-0.013031965
7	0x3d3d1fc7	0.046172883
8	0x3d53f687	0.05174878
9	0x3d21c3f0	0.0394935
10	0xbd520509	-0.051274333
11	0x3d1750f3	0.036942434
12	0xbd3a7560	-0.045522094
13	0xbd6ecb78	-0.05829951
14	0x3d52bcfc	0.05144976
15	0xbe323992	-0.17404774
16	0xbdccb081	-0.09994603
17	0xbd0a6273	-0.033785295
18	0xbe406ad7	-0.18790756
19	0xbd8dbd23	-0.069208406
20	0xbe271506	-0.16316614
21	0xbe7015eb	-0.23445861
22	0x3d83686e	0.06416403
23	0x3dceeb68	0.10103494
24	0xbda49405	-0.08036045
25	0x3e12c5c0	0.14333248
26	0x3e2c8fb4	0.16851693
27	0xbd007647	-0.031362798
28	0xbc84a99b	-0.016194155
29	0x3d2d2bef	0.042278226
30	0x3d938897	0.07203787
31	0x3d49ec63	0.0492977
32	0x3db9e235	0.09076349
33	0xbdaf1514	-0.08548942
34	0xbdd8adca	-0.10580023
35	0xbdc3b0b4	-0.09555188
36	0xbe00d01d	-0.12579389
37	0xbd9b485f	-0.07582163
38	0xbd2196e3	-0.039450537
39	0xbe036e99	-0.12835158
40	0xbe886308	-0.26638055
41	0xbe2903b0	-0.16505313
42	0xbe0fbb44	-0.1403628
43	0xbe071414	-0.13191253
44	0xbe4f6c10	-0.20256066
45	0x3e28acbf	0.16472147
46	0x3d6938ca	0.056938924
47	0x3dc0fc3e	0.094231114
48	0x3dd0bf9d	0.10192797
49	0xbc42d45b	-0.01189145
50	0x3d134319	0.03595266
51	0xbd3e18af	-0.04641026
52	0xbd8f4be9	-0.069969006
53	0xbdbca5e5	-0.09211329
54	0x3df5e452	0.12006439
55	0x3e2f57fe	0.1712341
56	0x3d993ac5	0.074819125
57	0x3d5d867d	0.054083336
58	0x3dd27e38	0.102779806
59	0x3d3f531c	0.04671012
60	0x3d9e9c70	0.07744682
61	0x3de6cd5d	0.11269639
62	0x3d3dc361	0.046328906
63	0xbe1a7edd	-0.15087457
64	0xbc9e95dd	-0.01935857
65	0x3e29e65e	0.16591784
66	0xbe095642	-0.13411811
67	0xbdb98f33	-0.09060516
68	0x3d25c885	0.040474433
69	0xbe114dca	-0.1418983
70	0xbe972eeb	-0.29527983
71	0xbec9212b	-0.39283118
72	0x3d182def	0.03715318
73	0xbd95e40e	-0.073188886
74	0xbcbf04a4	-0.023317643
75	0xbd9f5693	-0.077801846
76	0xbdf6f82a	-0.12059052
77	0xbd4da88f	-0.050209578
78	0xbd371eb5	-0.04470702
79	0xbdb668f5	-0.08906738
80	0xbe221c31	-0.15831067
81	0xbdc19344	-0.09451917
82	0x3cb94637	0.022616489
83	0x3ec61ef1	0.3869548
84	0xbe1c33ac	-0.15254086
85	0x3c358ea7	0.011081374
86	0x3eb61939	0.35566118
87	0x3d0d9224	0.0345632
88	0xbddf26dd	-0.108960845
89	0xbd5711b0	-0.052507102
90	0x3d26193d	0.040551413
91	0xbc139d8c	-0.00900973
92	0xba790261	-0.00094989507
93	0xbc6c68cf	-0.014429285
94	0x3d55ead6	0.05222591
95	0x3d80353c	0.06260154
96	0xbd721e56	-0.05911096
97	0x3be2f67a	0.006926355
98	0xbd947dff	-0.07250594
99	0x3bc76136	0.0060845865
100	0xbe717257	-0.23578773
101	0xbe372578	-0.17885387
102	0x3c02cb37	0.0079830205
103	0xbe538353	-0.20655565
104	0xbe5e1563	-0.21687846
105	0x3d352fa2	0.04423488
106	0xbe53e52b	-0.2069289
107	0xbe31ccc7	-0.17363273
108	0x3e4bccb4	0.19902307
109	0x3c810b6f	0.015752522
110	0xbd866911	-0.065630086
111	0x3e9ccc93	0.30624828
112	0x3e0dad31	0.13835599
113	0xbe0c1622	-0.13680318
114	0xbd6c1ef1	-0.057646696
115	0xbe77c628	-0.24196684
116	0xbe5177ba	-0.20455828
117	0xbd450699	-0.048101995
118	0x3ddcb830	0.107773185
119	0x3d6c3ca2	0.05767501
120	0x3c3d8bd0	0.011568978
121	0xbe026367	-0.12733231
122	0xbced932c	-0.029000841
123	0xbcad9bac	-0.021192394
124	0xbe14395c	-0.14475006
125	0xbdf9b6c1	-0.12193061
126	0x3d1aae32	0.03776378
127	0x3bfde344	0.0077480394
128	0xbe15fff0	-0.14648414
129	0xbe3b3294	-0.18281013
130	0xbe0d4b98	-0.13798368
131	0xbca2e686	-0.019885313
132	0xbe41237d	-0.18861194
133	0xbe0c36e5	-0.13692816
134	0x3c8ae58c	0.01695516
135	0xbb94fa56	-0.004546444
136	0xbcc3fb5b	-0.023923567
137	0xbc36abae	-0.01114933
138	0x3e039837	0.12851034
139	0xbd83e9b2	-0.06441058
140	0xbde07773	-0.10960283
141	0xbc656289	-0.014000543
142	0xbdbe1d66	-0.09282951
143	0xbdd7250c	-0.10505113
144	0xbe714fa7	-0.23565541
145	0xbe2a22a9	-0.16614784
146	0x3d8ca314	0.06867042
147	0xbe2244f7	-0.1584662
148	0xbdc5f925	-0.09666661
149	0x3e0be254	0.13660556
150	0x3add39fd	0.0016878244
151	0x3c833187	0.016014827
152	0x3e185ecb	0.1487991
153	0x3df6ab54	0.12044397
154	0x3d5eb928	0.054375798
155	0xbc815b60	-0.015790641
156	0x3d383af2	0.04497809
157	0x3d23a5f3	0.039953183
158	0xbd8b05ce	-0.067882165
159	0xbd5f8720	-0.054572225
160	0xbcd52aa2	-0.026021305
161	0xbd3c7ba4	-0.04601635
162	0x3e6e9e68	0.23302615
163	0x3ed3401a	0.41259843
164	0x3e5fca0c	0.21854419
165	0x3d8a914d	0.06765995
166	0x3de09665	0.109661855
167	0x3d2c0ffa	0.042007424
168	0xbe57ff16	-0.21093401
169	0xbeb7f7cd	-0.35931244
170	0xbecf1f9b	-0.404538
171	0x3ef985d7	0.48734924
172	0x3f2b1e4b	0.668431
173	0xbe380052	-0.17968872
174	0x3f1aaa01	0.60415655
175	0x3f327ce8	0.6972184
176	0xbe0c51a2	-0.13703015
177	0x3d8d290e	0.06892596
178	0x3deeefde	0.11666845
179	0xbef8f986	-0.4862787
180	0x3e1f08e9	0.15530743
181	0x3d5621e3	0.05227841
182	0x3e1280df	0.14306973
183	0xbe26057a	-0.16213027
184	0xbe2287c7	-0.15872107
185	0xbdd0d02b	-0.10195955
186	0xbc36797c	-0.011137363
187	0x3ba39842	0.004992516
188	0xbcf66716	-0.030078452
189	0xbe91af95	-0.2845427
190	0xbeab19bd	-0.33418074
191	0xbd6a4ef3	-0.057204198
192	0xbdc678ce	-0.096910104
193	0xbdebe30d	-0.11517916
194	0x3d761e70	0.06008762
195	0x3cd2fb33	0.025754547
196	0x3d142908	0.036171943
197	0x3e0bb75e	0.13644168
198	0xbe3f326c	-0.18671578
199	0xbe703da4	-0.23461014
200	0xbd27a4f1	-0.040928785
201	0xbdcb6cc6	-0.09932856
202	0xbe07e211	-0.13269831
203	0x3da7e5f6	0.081981584
204	0x3e3f9604	0.1870957
205	0x3d755103	0.059891712
206	0x3bb355bb	0.0054728664
207	0xbcd30b53	-0.025762236
208	0xbd517126	-0.051133297
209	0xbe473aca	-0.1945602
210	0xb9717f35	-0.0002303094
211	0xbdc138bd	-0.0943465
212	0xbdc8b22d	-0.09799609
213	0x3e4c8f0b	0.19976442
214	0xbd9bbdb4	-0.076045424
215	0xbd90b0b7	-0.07064956
216	0xbe6009d9	-0.21878757
217	0xbcf65613	-0.03007034
218	0x3e88b638	0.26701522
219	0x3d04c296	0.032412134
220	0x3e070989	0.13187231
221	0x3e5823bd	0.21107383
222	0x3ddc0a31	0.10744131
223	0x3e4bf365	0.19917066
224	0x3dbbb921	0.0916617
225	0x3d239ac8	0.039942533
226	0x3e759f3f	0.23986529
227	0xbcf3b09d	-0.029747302
228	0x3d4023fc	0.046909317
229	0x3e1f9f03	0.15588002
230	0x3dc8c942	0.09804012
231	0x3e3ed728	0.18636763
232	0x3e06ff59	0.13183345
233	0xbd3740af	-0.04473942
234	0x3eb80ac7	0.35945722
235	0x3efe4454	0.49661505
236	0x3eb318f8	0.34979987
237	0xbe1372f3	-0.14399318
238	0xbde7f87a	-0.1132669
239	0xbe4931e8	-0.19647944
240	0xbf33619c	-0.70070815
241	0xbf354373	-0.70806044
242	0xbf4b9de4	-0.79537797
243	0xbcaa1461	-0.02076167
244	0xbe07a03c	-0.13244718
245	0xbcbe8d54	-0.02326075
246	0x3e2cf749	0.16891207
247	0xbd8341c7	-0.064090304
248	0x3bd138fd	0.0063849674
249	0x3e861995	0.26191393
250	0x3d0a9d07	0.03384116
251	0x3da5ac30	0.08089483
252	0xbe7c351e	-0.24629638
253	0xbe1f1e7b	-0.15538971
254	0x3f077331	0.52910143
255	0xbea9213b	-0.33033165

model.layer1.0.bn2.weight f4 [16]
0	0x3ea6f986	0.32612246
1	0x3f7ed46f	0.995429
2	0x3f04e93a	0.51918375
3	0x3f64b895	0.8934415
4	0x3f7df351	0.99199396
5	0x3f53db4f	0.82756513
6	0x3f3a9098	0.7287688
7	0x3f569481	0.8382035
8	0x3f1280b1	0.5722762
9	0x3f88f93b	1.0701059
10	0x3efb304a	0.4906028
11	0x3eea5066	0.45764464
12	0x3f0429ec	0.5162647
13	0x3f1ba402	0.6079713
14	0x3efd3da9	0.49461105
15	0x3f32b773	0.6981117

model.layer1.0.bn2.bias f4 [16]
0	0xbeea39a2	-0.45747095
1	0xbef17c88	-0.47165322
2	0x3d95cbb1	0.07314242
3	0xbe84b161	-0.2591658
4	0x3e2b6cf7	0.16740786
5	0xbf86dd1d	-1.0536228
6	0x3df9792f	0.12181317
7	0x3d1d3677	0.03838202
8	0x3e964801	0.2935181
9	0x3ea53327	0.3226559
10	0xbda7bbbc	-0.08190104
11	0x3eec7457	0.4618251
12	0xbe6f053a	-0.23341838
13	0x3dbf3e75	0.093380846
14	0xbf81fb48	-1.015481
15	0xbe152857	-0.1456617

model.layer1.0.bn2.running_mean f4 [16]
0	0xc01f6504	-2.4905405
1	0x3d9efd7e	0.077631935
2	0xbf3e384f	-0.7430467
3	0xbf3347ca	-0.70031416
4	0xbf0ebe33	-0.5575897
5	0xbe8046c4	-0.2505399
6	0xc05bd7a7	-3.4350374
7	0xc03714f7	-2.8606546
8	0xbe18313a	-0.14862528
9	0xc007508c	-2.1142912
10	0xbfd149a8	-1.6350603
11	0x3dd5a761	0.104323156
12	0x40530a4c	3.2975035
13	0xbfc8d7cf	-1.569086
14	0xbf10086c	-0.5626285
15	0x3eb3ae22	0.3509379

model.layer1.0.bn2.running_var f4 [16]
0	0x4023ac3b	2.557387
1	0x407bcfbd	3.9345543
2	0x401b693e	2.4282985
3	0x40ed4399	7.4145017
4	0x4128ff4e	10.56233
5	0x4028b6b3	2.636151
6	0x4036ff3a	2.8593278
7	0x40712f36	3.7685065
8	0x4082fc2b	4.093282
9	0x40ee4d36	7.446925
10	0x40592267	3.3927248
11	0x40865e0b	4.19898
12	0x405fcf0a	3.4970117
13	0x4081cd48	4.0563087
14	0x3f9cef6e	1.2260568
15	0x40d53966	6.6632566

model.layer1.1.conv1.weight f4 [16, 16, 3, 3]
0	0xbbd39f87	-0.006458226
1	0xbc9a03ea	-0.018800694
2	0xbd127df0	-0.035764635
3	0xbdcc7236	-0.099827215
4	0xbdfa7b65	-0.12230567
5	0xbc94b5a8	-0.018153027
6	0xbdaf92b2	-0.08572902
7	0xba9e1abf	-0.0012062414
8	0x3d71160f	0.058858927
9	0x3c394441	0.011307777
10	0x3d4de835	0.050270278
11	0x3d487b81	0.048945908
12	0x3d8597cb	0.06523093
13	0x3e039374	0.12849218
14	0xbda617a9	-0.081099816
15	0xbd99317d	-0.07480142
16	0xbd4f2044	-0.05056788
17	0xbe2c09a7	-0.16800557
18	0x3da9f4e8	0.08298665
19	0x3d8f622d	0.070011474
20	0x3c16a681	0.009194971
21	0x3dc85619	0.09782047
22	0x3d10ac01	0.035320286
23	0x3c60c90f	0.013719811
24	0xbdee286d	-0.11628804
25	0xbe071a5c	-0.13193649
26	0xbc871f64	-0.01649446
27	0xbe22eec1	-0.1591139
28	0xbe5e0711	-0.21682383
29	0x3e275efc	0.16344827
30	0xbe66abbe	-0.22526452
31	0x3dc424f2	0.09577359
32	0xbdffbf93	-0.12487712
33	0x3f41bed3	0.756818
34	0x3ec26fdc	0.37975967
35	0xbe6025d1	-0.21889426
36	0xbda1ca15	-0.07899872
37	0xbdb7c31b	-0.0897276
38	0x3e864432	0.26223904
39	0xbdbc6659	-0.09199209
40	0x3cbf3d45	0.023344645
41	0x3c5ac428	0.013352431
42	0x3ec21097	0.37903282
43	0x3eb46b72	0.35238224
44	0x3c86b1ce	0.016442206
45	0xbdc87c50	-0.09789336
46	0xbde8af2f	-0.113615386
47	0xbc5342da	-0.012894357
48	0x3e18af74	0.1491068
49	0xbd30c773	-0.04315896
50	0xbbebb6f4	-0.0071934406
51	0xbd11742e	-0.03551119
52	0x3c800195	0.015625754
53	0xbe319b02	-0.17344287
54	0x3dda50be	0.106599316
55	0x3c5a1581	0.013310791
56	0x3cd1758c	0.025568746
57	0x3db76f1b	0.089567386
58	0x3d270861	0.040779475
59	0x3d96a88f	0.07356369
60	0x3d1be70b	0.038062137
61	0xbd9df389	-0.07712466
62	0x3db288ec	0.08717522
63	0xbd7ca6ca	-0.0616825
64	0xbd4d978f	-0.050193366
65	0x3b097eae	0.0020980048
66	0x3b404d02	0.0029342775
67	0xbb4de387	-0.0031416134
68	0x3cff5229	0.031167107
69	0xbd448a2a	-0.047983326
70	0xbc2794f0	-0.010228381
71	0xbd3eee12	-0.04661376
72	0x3d136d52	0.035992928
73	0x3dfeb289	0.12436397
74	0x3debdd2e	0.11516796
75	0x3db5a251	0.0886885
76	0x3c446788	0.011987574
77	0x3d08a2c6	0.033358358
78	0x3d71baca	0.059016027
79	0xbd926927	-0.071489625
80	0xbc6fd4f5	-0.014638175
81	0x3e73ab2b	0.23795764
82	0x3dfda759	0.12385435
83	0x3e284e4d	0.1643612
84	0x3f09bb5b	0.53801507
85	0x3eef8374	0.46779978
86	0x3e4e6eb2	0.20159414
87	0xbe94ca6c	-0.29060686
88	0xbda3c476	-0.07996456
89	0xbde6a91f	-0.11262726
90	0x3d8b006d	0.067871906
91	0x3d36ea96	0.044657312
92	0x3df0383c	0.11729476
93	0x3ea56d00	0.32309723
94	0x3e8991b0	0.26868963
95	0x3dbcb2f7	0.09213822
96	0x3e3a3269	0.18183292
97	0x3de4aefb	0.111661874
98	0x3ba16b74	0.0049261395
99	0x3df890a0	0.1213696
100	0x3d86558a	0.06559284
101	0xbc3f794b	-0.011686633
102	0x3dd78a38	0.1052441
103	0x3dea516c	0.11441311
104	0x3b64dd3f	0.0034921912
105	0xba098a16	-0.00052467117
106	0xbd1e67cc	-0.038673207
107	0xbd078e22	-0.033094533
108	0x3e50818a	0.20361915
109	0x3d9b317a	0.07577796
110	0xbb284bce	-0.0025679949
111	0xbbe9434e	-0.007118619
112	0x3d3f0096	0.04663142
113	0xbdc58782	-0.09644987
114	0xb99c5f05	-0.00029825434
115	0x3d388eb8	0.045057982
116	0xbda06822	-0.07832362
117	0xbebdd487	-0.37076208
118	0xbe82a6fb	-0.2551802
119	0xbe47c5aa	-0.19508997
120	0xbe603b04	-0.21897513
121	0xbe976456	-0.29568738
122	0xbe92b7e6	-0.28655928
123	0xbd95729c	-0.07297251
124	0xbdecce6d	-0.1156281
125	0xbdfc472c	-0.123182625
126	0xbda9aa8a	-0.08284481
127	0xbda7b281	-0.08188344
128	0xbde059dd	-0.1095464
129	0x3c916f78	0.017753348
130	0x3b0e9279	0.0021754785
131	0x3b33c89a	0.00274328
132	0xbe070f92	-0.13189533
133	0xbd98bc37	-0.07457774
134	0x3d8b3780	0.06797695
135	0xbdbe9037	-0.093048505
136	0x3df5d510	0.12003529
137	0x3da737cc	0.08164939
138	0x3da44461	0.08020855
139	0x3cf6f297	0.030144973
140	0xbc880c0b	-0.016607305
141	0xbe234c0b	-0.15946977
142	0xbe4c18a4	-0.19931275
143	0xbe84e84b	-0.25958475
144	0x3dab0a4f	0.083515756
145	0xbdb8f75c	-0.09031555
146	0xbde32783	-0.11091521
147	0x3e1fb831	0.15597607
148	0xbdbcd296	-0.092198536
149	0xbe040021	-0.12890674
150	0x3d6a3eb9	0.057188723
151	0xbde5e580	-0.11225414
152	0xbe154e3d	-0.14580627
153	0xbe38c93a	-0.18045512
154	0xbe31a0ed	-0.17346545
155	0xbd852a40	-0.06502199
156	0xbe04974f	-0.12948345
157	0xbc30b9b9	-0.010786467
158	0x3c31993e	0.010839758
159	0xbd7e6fac	-0.062118217
160	0xbbc3ece4	-0.0059791673
161	0x3e32a703	0.17446522
162	0xbe35b193	-0.1774352
163	0xbdd9c4bd	-0.10633228
164	0xbdec541f	-0.11539482
165	0xbdb300d0	-0.08740389
166	0xbc74b551	-0.014935807
167	0x3d8d9eb9	0.069150396
168	0x3cbc066e	0.022952285
169	0x3dcffb42	0.101553455
170	0x3dc795a8	0.097453415
171	0xbd140502	-0.03613759
172	0xbb8001e6	-0.0039064763
173	0xbddd8170	-0.10815704
174	0x3dafd2fa	0.085851625
175	0x3df51c22	0.119682565
176	0xbe362412	-0.17787197
177	0xbe033d4d	-0.12816353
178	0x3d3f504a	0.04670743
179	0x3e3ca033	0.18420486
180	0xbe508e92	-0.20366886
181	0x3e1eb859	0.1550001
182	0xbb1f75db	-0.0024331722
183	0xbc49996f	-0.012304648
184	0x3e807efd	0.25096884
185	0x3d91f0d6	0.07126014
186	0xbdb97217	-0.09054964
187	0x3d826573	0.06367006
188	0xbcf369eb	-0.029713592
189	0x3c39ff65	0.011352395
190	0xbdb341e3	-0.08752801
191	0xbd3fe46a	-0.046848692
192	0xbd823fbf	-0.06359815
193	0xbd4694f0	-0.04848188
194	0x3cfc24f5	0.030779341
195	0x3c614d63	0.013751361
196	0xbc900fed	-0.017585719
197	0x3db25cd3	0.08709111
198	0xbdc04848	-0.093887866
199	0x3ca1a047	0.019729747
200	0x3bef95a6	0.0073115407
201	0xbd1af4ac	-0.037830994
202	0xbd9e77a0	-0.077376604
203	0xbcdc9c8a	-0.026930112
204	0xbdb127b0	-0.08650148
205	0xbdada77c	-0.08479211
206	0xbdba01e7	-0.09082394
207	0xbde95c74	-0.11394587
208	0xbe00b148	-0.12567627
209	0xbd92fc86	-0.07177071
210	0xbe5ecd09	-0.21757902
211	0xbde923fe	-0.11383818
212	0xbcee732a	-0.029107649
213	0xbe2ec81c	-0.17068523
214	0x3c42fba0	0.011900812
215	0x3e1ccede	0.15313289
216	0xbe199855	-0.14999516
217	0xbdbd3687	-0.09238916
218	0xbceaf804	-0.028682716
219	0xbe014537	-0.1262406
220	0xbbccb3a5	-0.0062470012
221	0x3c5c7621	0.0134558985
222	0xbcb95733	-0.022624588
223	0xbd3b3afd	-0.045710552
224	0x3d62d2f1	0.05537695
225	0x3ded390d	0.11583147
226	0xbdc287e8	-0.09498578
227	0xbe066288	-0.13123524
228	0x3db44baa	0.08803494
229	0xbe02e53c	-0.12782758
230	0x3e518789	0.20461859
231	0x3ed53125	0.41639057
232	0xbd8a7e2f	-0.06762349
233	0xbd78010e	-0.06054788
234	0xbd82392c	-0.06358561
235	0xbe1a9cd9	-0.15098895
236	0xbe3ced04	-0.1844979
237	0xbd5b188a	-0.0534902
238	0xbd472763	-0.048621546
239	0xbd3f702c	-0.046737835
240	0x3c03b032	0.008037614
241	0x3d641d50	0.055692017
242	0x3d80832e	0.062750205
243	0xbadd59db	-0.0016887741
244	0x3e917b0d	0.28414193
245	0x3eccbd09	0.39987972
246	0x3d80957f	0.06278514
247	0x3e88c925	0.2671596
248	0x3ec5a193	0.38599834
249	0x3d6c8eca	0.05775336
250	0x3e0610c4	0.13092333
251	0x3df292de	0.11844419
252	0xbe0fd104	-0.14044577
253	0xbe4fb231	-0.20282818
254	0xbe5ea915	-0.21744187
255	0xbd980947	-0.074236445

model.layer1.1.bn1.weight f4 [16]
0	0x3f62f308	0.88652086
1	0x3f3bb4bd	0.7332266
2	0x3f23f07b	0.6403882
3	0x3f5e125a	0.8674675
4	0x3f1b25c4	0.606045
5	0x3f4ef7ec	0.8084705
6	0x3f8027d7	1.0012158
7	0x3f5375a2	0.8260137
8	0x3f9fd3ea	1.2486546
9	0x3f5ddbbb	0.8666341
10	0x3f6013ca	0.87530196
11	0x3f6af759	0.9178367
12	0x3f7790d1	0.9670535
13	0x3f8cbbb9	1.0994788
14	0x3f2e0f98	0.67992544
15	0x3f7022b9	0.9380298

model.layer1.1.bn1.bias f4 [16]
0	0xbe2b4264	-0.16724545
1	0xbebc0db9	-0.3672922
2	0xbef18f28	-0.47179532
3	0xbe46a6ee	-0.19399616
4	0x3da96810	0.082718015
5	0xbe1fd1f3	-0.15607433
6	0xbdcb7107	-0.09933668
7	0xbeaedd2d	-0.3415312
8	0x3e6a748b	0.2289602
9	0xbeec61f9	-0.46168497
10	0xbe2b103b	-0.1670541
11	0x3e58f8cb	0.21188657
12	0xbda784d0	-0.08179629
13	0xbde925cb	-0.113841616
14	0xbde4114c	-0.111361116
15	0xbeab43ef	-0.33450267

model.layer1.1.bn1.running_mean f4 [16]
0	0x402249ac	2.5357466
1	0x3f868549	1.0509425
2	0x408f976c	4.487234
3	0xbe415e6e	-0.18883678
4	0xbfd58e2e	-1.6684015
5	0xc0a6f651	-5.217568
6	0xbfb682b0	-1.4258633
7	0xbfbf2213	-1.4932274
8	0xc0802347	-4.0043063
9	0xbf8bbf8f	-1.0917834
10	0xbe24d934	-0.16098481
11	0xbfdfa4e8	-1.74722
12	0x3f80687b	1.0031885
13	0xbf923e7c	-1.1425319
14	0xbf2448ca	-0.6417357
15	0xc017b533	-2.3704345

model.layer1.1.bn1.running_var f4 [16]
0	0x40cc8ffe	6.392577
1	0x40214e4b	2.5204036
2	0x3fff1238	1.9927435
3	0x40c6651d	6.199843
4	0x4035da51	2.84145
5	0x40a1e62c	5.059347
6	0x41229eff	10.163817
7	0x40305fa5	2.7558377
8	0x4150bc83	13.046023
9	0x4073444a	3.801043
10	0x40c77d0c	6.2340145
11	0x40eab8cb	7.3350577
12	0x410d26dc	8.821987
13	0x41363664	11.388279
14	0x40032cd9	2.0496123
15	0x4095241d	4.6606584

model.layer1.1.conv2.weight f4 [16, 16, 3, 3]
0	0x3e01ac5a	0.12663403
1	0x3d06a855	0.032875378
2	0xbe85faea	-0.26167995
3	0xbcaf958d	-0.021433616
4	0xbe1c32f9	-0.1525382
5	0xbee07cae	-0.43845123
6	0x3d07be52	0.033140488
7	0xbe09500d	-0.13409443
8	0xbe42fde9	-0.19042172
9	0xbe1e1ef4	-0.15441495
10	0x3ccfd341	0.025369288
11	0x3cefb653	0.029261744
12	0xbe1698e2	-0.14706758
13	0x3dac89b5	0.08424703
14	0x3e3574bd	0.17720313
15	0xbd9b6bad	-0.07588897
16	0x3e0b6cec	0.13615769
17	0x3cf7517f	0.030190228
18	0xbe2f4d49	-0.17119326
19	0xbe1120bd	-0.14172645
20	0xbd9113c9	-0.07083852
21	0xbeacc086	-0.33740634
22	0xbe8c783c	-0.27435482
23	0xbd2481ac	-0.040162727
24	0xbea0f5a9	-0.31437424
25	0xbe107ac6	-0.14109334
26	0x3db78484	0.08960822
27	0x3d658eb2	0.056044288
28	0x3e7f8d7e	0.24956319
29	0x3e2fbd2a	0.17162004
30	0x3de09786	0.10966401
31	0x3accc3f8	0.0015622368
32	0x3e22c2b4	0.15894586
33	0xbce8c1b7	-0.028412683
34	0xbdba393d	-0.090929486
35	0xbc9886ad	-0.018618906
36	0x3df71481	0.12064458
37	0x3c4fee19	0.012691044
38	0x3cae06a9	0.02124341
39	0x3dd49375	0.10379688
40	0xbe1d1213	-0.15338926
41	0xbdce4bab	-0.10073026
42	0xbd404469	-0.04694024
43	0xbd6a63a7	-0.057223942
44	0xbe628f8b	-0.2212507
45	0x3d9da035	0.07696573
46	0x3d0126ba	0.031531073
47	0x3c04f284	0.008114461
48	0x3e25624a	0.16150776
49	0xbd689f8f	-0.056792792
50	0xbe173991	-0.14768054
51	0x3e428342	0.18995383
52	0xbdd903c6	-0.10596423
53	0xbe8af7aa	-0.27142078
54	0xbdf6e48d	-0.12055311
55	0xbc6c90e0	-0.014438838
56	0xbd6505ae	-0.05591362
57	0x3e99ca04	0.30036938
58	0x3dffa761	0.12483097
59	0x3c6ea19a	0.014564896
60	0x3e6dd551	0.23225905
61	0xbd7d8e7a	-0.061903454
62	0x3d0a1511	0.033711497
63	0x3e657e77	0.22411524
64	0x3e816afc	0.25276935
65	0x3e368ad7	0.178264
66	0xbd9f9ddb	-0.077937804
67	0x3d050312	0.03247363
68	0x3d80d9f6	0.06291573
69	0x3dcd209b	0.100159846
70	0x3e05f005	0.13079841
71	0x3e32c614	0.17458373
72	0xbe63e050	-0.22253537
73	0xbe9c27f2	-0.30499226
74	0xbdccd5bc	-0.10001704
75	0x3d464ed1	0.04841501
76	0xbe6349fa	-0.22196189
77	0xbea1befb	-0.3159102
78	0x3e05ac30	0.13053966
79	0xbdff05cd	-0.12452278
80	0xbe812afb	-0.25228104
81	0x3d9ca216	0.07648103
82	0xbd04eed9	-0.032454345
83	0xbe0ece87	-0.13945971
84	0xbcc7863a	-0.024355996
85	0xbc9f7fb4	-0.019470073
86	0xbc15d076	-0.009143939
87	0xbdf0dd38	-0.11760944
88	0xbd8502fc	-0.0649471
89	0x3d4505ad	0.048101116
90	0x3e45681b	0.19277994
91	0x3c9af91c	0.018917613
92	0x3db98178	0.09057897
93	0x3df00079	0.1171884
94	0xbe63c97c	-0.22244829
95	0xba74238d	-0.0009313159
96	0xbd5d5c5b	-0.054043155
97	0xbdeb370d	-0.114851095
98	0xbbdeb1d8	-0.006796103
99	0x3df0b558	0.117533386
100	0xbe9306c5	-0.28716102
101	0xbe690732	-0.22756651
102	0x3dffd815	0.12492386
103	0xbe496196	-0.19666132
104	0xbee50bdf	-0.4473562
105	0xbce9d3c4	-0.02854336
106	0xbdd3dc32	-0.10344733
107	0xbe246bb8	-0.16056716
108	0x3eba822c	0.36427438
109	0x3d9fdf19	0.078062244
110	0xbdc7ca64	-0.097554
111	0x3e963dc5	0.29344
112	0x3e437bce	0.19090196
113	0x3e076c9b	0.13225023
114	0x3d94dd47	0.07268768
115	0x3ddf9a60	0.109181166
116	0x3e22f4a9	0.15913643
117	0x3d9519a0	0.07280278
118	0xbe7ca7c5	-0.24673374
119	0x3d17729b	0.03697453
120	0x3e295604	0.16536719
121	0xbdd0471e	-0.101698145
122	0xbca46e91	-0.020072253
123	0xbe0bf461	-0.13667442
124	0xbdd07c0b	-0.10179909
125	0xbdd39a0b	-0.10332116
126	0xbb7a2d9f	-0.0038174165
127	0xbe22a17e	-0.15881917
128	0x3e03d173	0.12872867
129	0xb9cf055c	-0.0003948611
130	0xbe1f0450	-0.15528989
131	0x3dd4ce5e	0.10390924
132	0xbd008186	-0.031373523
133	0xbdfdcef2	-0.12392987
134	0xbd04d54c	-0.03242998
135	0x3e88ea8e	0.2674145
136	0x3d84e04b	0.06488093
137	0xbe5d2e3e	-0.21599671
138	0x3e7a408d	0.24438687
139	0x3e768ba1	0.24076702
140	0xbe49f12e	-0.19720909
141	0x3e119c59	0.14219798
142	0x3d0505e4	0.03247632
143	0xbde363a1	-0.11102987
144	0x3dc3f954	0.0956904
145	0x3d5a614f	0.053315457
146	0x3dcb3650	0.09922469
147	0xbdec8e77	-0.115506105
148	0xbd640cbd	-0.05567621
149	0xbdfcbae3	-0.12340333
150	0xbc988ab5	-0.018620828
151	0xbd844c82	-0.06459905
152	0x3d8bd8b9	0.06828446
153	0x3e305cfc	0.1722297
154	0x3deeaacf	0.11653673
155	0xbda50df6	-0.080593035
156	0x3e56d625	0.20980127
157	0x3dd6714a	0.10470827
158	0xbd3c00c0	-0.045899153
159	0x3dcf882b	0.10133394
160	0x3d6fc04f	0.05853301
161	0xbd86ad62	-0.06576039
162	0x3dc44ee1	0.095853575
163	0x3d373b60	0.04473436
164	0xbc1eb15a	-0.009685839
165	0xbe18d9c6	-0.14926824
166	0xbd970838	-0.073746145
167	0xbe542157	-0.20715843
168	0xbe0e8888	-0.1391927
169	0xbd58686d	-0.052833963
170	0xbdd37b4d	-0.10326252
171	0x3e34ad20	0.17644167
172	0x3d58a59f	0.052892324
173	0xbd0b170f	-0.033957537
174	0x3dbf8eda	0.09353419
175	0x3e0f978e	0.14022657
176	0xbe29615a	-0.16541043
177	0x3e1025fd	0.14076991
178	0x3e2bc5ca	0.1677467
179	0xbdfbc69e	-0.122937426
180	0x3d79cb20	0.06098473
181	0x3de1a47d	0.11017702
182	0x3a166b9a	0.000573808
183	0x3d727e66	0.059202574
184	0xbd943a2c	-0.07237658
185	0xbd6c2762	-0.057654746
186	0x3d3236d9	0.043509338
187	0x3d0796f0	0.03310293
188	0x3d1d4186	0.038392566
189	0xbe37c7bd	-0.17947288
190	0xbd7383e9	-0.05945197
191	0xbdeb8b8b	-0.11501225
192	0xbd0c478e	-0.034247927
193	0x3d45123b	0.04811309
194	0x3c82ea22	0.015980784
195	0xbce1340f	-0.027490644
196	0x3cf6aae4	0.030110784
197	0x3c98bfb0	0.018646091
198	0x3e35ce95	0.17754586
199	0x3cf13dc3	0.029448396
200	0x3da5c6ee	0.080945835
201	0x3e368f82	0.17828181
202	0xbdcd6ed7	-0.10030907
203	0x3cefad70	0.029257506
204	0x3db32fd6	0.08749358
205	0xbd7b01f3	-0.061281156
206	0xbc14e270	-0.00908719
207	0xbe4c1dd8	-0.1993326
208	0xbd7fd707	-0.062460925
209	0xbd1b87ea	-0.037971415
210	0xbe88c1b7	-0.26710293
211	0xbe1c0446	-0.15236005
212	0xbe135a17	-0.14389835
213	0xbea850ff	-0.32874295
214	0xbe5377b6	-0.20651135
215	0xbe8758ee	-0.26435035
216	0x3d85357a	0.065043405
217	0x3bc43c78	0.0059886537
218	0xbe10ac5b	-0.14128248
219	0x3e22566e	0.15853283
220	0xbe0438ff	-0.12912367
221	0x3dbbb216	0.091648266
222	0x3cd00c81	0.025396587
223	0xbdfcd12d	-0.123445846
224	0x3e36419c	0.17798465
225	0xbbf4d06e	-0.007471136
226	0xbe1641eb	-0.14673583
227	0xbd266ed5	-0.04063304
228	0x3d956c8c	0.07296094
229	0xbdc254b1	-0.0948881
230	0xbdd40a18	-0.10353488
231	0x3e195b0e	0.14976141
232	0x3dba81b3	0.091067694
233	0xbd2a263d	-0.041540373
234	0x3b107c61	0.0022046792
235	0xbc97c958	-0.018528625
236	0xbd12bb15	-0.035822947
237	0x3dbbf623	0.09177806
238	0x3ddcd853	0.10783448
239	0x3e1d13da	0.15339604
240	0xbc82b663	-0.01595611
241	0xbdfaec86	-0.122521445
242	0x3cbf5a68	0.023358539
243	0xbd0f4cd5	-0.034985382
244	0x3c492677	0.012277237
245	0xbe54545a	-0.20735303
246	0xbda4eb78	-0.080527246
247	0x3d4f3033	0.050583076
248	0xbe7675fa	-0.24068442
249	0xbcab7234	-0.02092848
250	0x3cbee309	0.023301618
251	0xbd691145	-0.056901235
252	0xbe0d7a8c	-0.13816279
253	0xbe3e300b	-0.18573014
254	0xbdacb974	-0.0843381
255	0xbe9a25d2	-0.3010698

model.layer1.1.bn2.weight f4 [16]
0	0x3ed1bbcb	0.40963587
1	0x3e716a10	0.23575616
2	0x3f4d599f	0.80214876
3	0x3f0d3cb8	0.55170774
4	0x3f549cfb	0.83052033
5	0x3f6362a4	0.8882239
6	0x3f0ec210	0.55764866
7	0x3eee2eb7	0.46520016
8	0x3eb2e81a	0.34942704
9	0x3f568d17	0.83809036
10	0x3f326804	0.69689965
11	0x3e44775c	0.19186157
12	0x3e69c3a8	0.22828543
13	0x3f041791	0.5159846
14	0x3ed4085c	0.41412628
15	0x3ecd15a3	0.4005557

model.layer1.1.bn2.bias f4 [16]
0	0x3d23840f	0.039920863
1	0x3e95488a	0.29156905
2	0xbe03c8b2	-0.12869528
3	0xbf214d17	-0.63008255
4	0xbf65f126	-0.8982109
5	0xbe221918	-0.15829885
6	0x3cb97e60	0.022643268
7	0xbdce219f	-0.100650065
8	0x3e9d23db	0.30691418
9	0xbf0886a6	-0.5333046
10	0x3ea93270	0.33046293
11	0x3eae3ae4	0.34029305
12	0x3e416816	0.18887362
13	0xbe3b587f	-0.18295477
14	0x3e384916	0.1799663
15	0x3da2b8f7	0.079454355

model.layer1.1.bn2.running_mean f4 [16]
0	0xbf8f87b6	-1.1213291
1	0xbee8a17b	-0.454357
2	0xbfa1b854	-1.2634377
3	0x3e9dab42	0.30794722
4	0xbefa915f	-0.48939034
5	0xbf2dbe16	-0.67868173
6	0xc004b3d8	-2.0734768
7	0xbe2ae496	-0.16688761
8	0x3d7606ce	0.060065083
9	0xbeeb7d9b	-0.45994267
10	0xc00a9ccb	-2.16582
11	0xbf7af447	-0.9802899
12	0xbf4cf5a6	-0.8006233
13	0x3d73c716	0.059516035
14	0x3f8d0c99	1.101947
15	0xbe599592	-0.21248463

model.layer1.1.bn2.running_var f4 [16]
0	0x3fc8535d	1.565044
1	0x3f662ed0	0.8991518
2	0x4005108b	2.0791347
3	0x400980b5	2.1484807
4	0x409d5fcf	4.9179454
5	0x40837b23	4.1087813
6	0x3ff094c2	1.8795397
7	0x3fb206ae	1.3908288
8	0x3fa69143	1.301308
9	0x4062f326	3.5460906
10	0x40485f68	3.1308231
11	0x3f83c71d	1.029514
12	0x3f5e400b	0.8681647
13	0x3fe6b0b1	1.8022672
14	0x3fab9eff	1.3407897
15	0x3fce54c9	1.6119624

model.layer2.0.conv1.weight f4 [32, 16, 3, 3]
0	0xbde618f4	-0.11235228
1	0x3e117d8e	0.14208052
2	0x3e5fe2f9	0.21863927
3	0xbe191c49	-0.14952196
4	0x3ddfd549	0.10929353
5	0x3c8e4c18	0.017370269
6	0x3cee42d1	0.029084595
7	0x3d1f1c84	0.038845554
8	0x3d79a709	0.060950313
9	0x3d9c172d	0.07621608
10	0x3e13bf3a	0.14428416
11	0x3ced3508	0.028955951
12	0x3e105141	0.14093496
13	0x3ddab93b	0.10679861
14	0x3dab5245	0.08365301
15	0x3e83cbcc	0.25741422
16	0x3ea33c4f	0.3188195
17	0x3e5ee91e	0.21768615
18	0x3d7520c4	0.0598457
19	0x3d7b1b13	0.061305117
20	0x3d2703f2	0.040775247
21	0xbbe0e412	-0.0068631256
22	0xbd707519	-0.058705423
23	0x3d5c7ee9	0.05383197
24	0xbd93b190	-0.07211602
25	0x3d2b056b	0.041753214
26	0xbdab6cce	-0.08370362
27	0xbd2cad09	-0.042157207
28	0xbe391831	-0.18075635
29	0xbdbe9670	-0.093060374
30	0xbe254eb5	-0.16143306
31	0xbeaec21c	-0.3413247
32	0xbe6b1b31	-0.22959591
33	0xbe4102f6	-0.18848786
34	0xbe541c17	-0.2071384
35	0xbe16f3a9	-0.14741386
36	0x3e19d6bc	0.15023321
37	0x3ea599e2	0.32343966
38	0x3df26837	0.11836284
39	0x3ddcfebd	0.10790775
40	0x3e1df3fc	0.15425104
41	0x3e9d932e	0.30776352
42	0x3d285842	0.041099794
43	0x3e14b109	0.14520659
44	0x3e967ac7	0.29390547
45	0x3e23c668	0.15993655
46	0xbdf42de0	-0.119228125
47	0xbe9279a2	-0.28608423
48	0x3d9bf89e	0.07615779
49	0xbe5c3cd7	-0.21507584
50	0xbe5294de	-0.20564601
51	0xbe3a50c1	-0.18194868
52	0xbe4636f1	-0.19356896
53	0x3d34b30d	0.04411607
54	0x3e9b1eda	0.30296975
55	0x3eab2952	0.33429962
56	0x3dc7f599	0.09763641
57	0x3e9969a9	0.29963425
58	0x3ec16777	0.3777425
59	0x3d11a989	0.035562072
60	0x3eaa0bce	0.3321213
61	0x3e95061a	0.29106218
62	0x3d8d3ff6	0.06896965
63	0x3d944ccc	0.0724121
64	0x3e5e0100	0.21680069
65	0x3e1f50d7	0.15558182
66	0x3dae9188	0.08523852
67	0x3cc15a84	0.023602732
68	0x3d8824df	0.066476576
69	0x3d6b41df	0.057435866
70	0xbd11bc27	-0.035579827
71	0x3cc84ac4	0.024449714
72	0x3d82f7d8	0.06394929
73	0x3eb70909	0.3574908
74	0x3ebe7164	0.37195885
75	0x3da6ad7b	0.081385575
76	0x3e869d9c	0.2629212
77	0x3e08989a	0.13339463
78	0x3b30d563	0.0026982657
79	0x3d9f0489	0.07764537
80	0x3dbf6a6c	0.0934647
81	0x3c1f5f06	0.009727245
82	0x3cd87382	0.026422266
83	0x3e924c6b	0.28573927
84	0x3d5c6c16	0.053814016
85	0x3e8315b0	0.25602484
86	0x3eae09eb	0.33991942
87	0xbcbe5821	-0.023235383
88	0x3deb8efd	0.11501882
89	0x3e38a90a	0.18033233
90	0xbe5e74f5	-0.21724303
91	0xbe3bcab4	-0.18339044
92	0x3d853643	0.0650449
93	0xbe1c6935	-0.15274508
94	0xbd830759	-0.06397886
95	0x3dfa5798	0.122237384
96	0x3e27a117	0.16370045
97	0x3d8e2a6a	0.069416836
98	0x3e12431c	0.14283413
99	0x3e1d7a26	0.15378627
100	0x3e088d31	0.1333511
101	0x3c993e19	0.018706368
102	0x3d593bc6	0.05303552
103	0x3de534ca	0.11191709
104	0x3defef76	0.117155954
105	0xbdb6473f	-0.08900308
106	0x3ca3a854	0.019977726
107	0xbd86beb0	-0.065793395
108	0xbd2ed9b2	-0.04268808
109	0xbe6939e0	-0.22775984
110	0xbea10d19	-0.31455305
111	0xbe1252ca	-0.14289394
112	0xbeb9a07b	-0.3625525
113	0xbedb3bbb	-0.42819008
114	0xbe19e13a	-0.15027323
115	0xbeb116f2	-0.34587818
116	0xbe8db43c	-0.2767657
117	0x3d9cb532	0.07651748
118	0x3d57d2e2	0.052691348
119	0xbd65bd79	-0.0560889
120	0x3e12f5a0	0.14351511
121	0xbda6b14e	-0.08139287
122	0xbd819e31	-0.06329001
123	0xbd2276db	-0.03966413
124	0xbd155dae	-0.036466293
125	0x3b09ae74	0.0021008523
126	0xbd9dd5a9	-0.07706768
127	0xbdfbba6c	-0.122914165
128	0xbd5e5abc	-0.05428575
129	0x3d8dd4c0	0.069253445
130	0x3dc30c6a	0.09523852
131	0xbd0b12a7	-0.033953335
132	0x3e6a0480	0.22853279
133	0x3e3b8a49	0.1831447
134	0x3e23f007	0.16009532
135	0xbe8700ec	-0.2636789
136	0xbe03618b	-0.12830178
137	0xbde8ee9f	-0.11373638
138	0xbeaeee8f	-0.3416638
139	0xbe2b5f5c	-0.16735595
140	0xbd8b617e	-0.068057045
141	0xbee3f2ae	-0.44521087
142	0xbe91112f	-0.28333423
143	0xbe23df19	-0.16003074
144	0x3daa736b	0.083227955
145	0xbd2f9b15	-0.042872507
146	0xbea73f3d	-0.32665434
147	0x3e219731	0.15780331
148	0x3e1fe07c	0.15612978
149	0xbd7f5c34	-0.06234379
150	0xbe50dae9	-0.20396008
151	0x3cdcb136	0.02693997
152	0x3e41cda1	0.18926097
153	0xbd85e474	-0.065377146
154	0x3de63bcf	0.11241876
155	0x3e09bb3b	0.13450329
156	0xbe4b7379	-0.19868268
157	0x3deec808	0.11659247
158	0x3e02e353	0.1278203
159	0xbe87a23b	-0.2649096
160	0xbdb32a08	-0.08748251
161	0x3c4095cc	0.011754464
162	0xbd98276e	-0.074293956
163	0x3caeb0a1	0.021324458
164	0x3cfda142	0.030960683
165	0xbd068bd5	-0.032848198
166	0x3cd2fa5a	0.025754143
167	0x3d3b7285	0.04576351
168	0xbdae8634	-0.08521691
169	0xbe476988	-0.1947385
170	0xbdee9510	-0.11649525
171	0x3e14d801	0.14535524
172	0xbe6be560	-0.23036718
173	0xbda29a97	-0.07939642
174	0x3e74cf8b	0.23907296
175	0x3e03a613	0.12856321
176	0xbea63cb8	-0.324682
177	0xbe8d330c	-0.27578008
178	0x3f0418b6	0.51600206
179	0x3ef3ed29	0.47641876
180	0xbcaa6505	-0.020800123
181	0xbe465249	-0.19367327
182	0xbdf3c238	-0.11902279
183	0x3e28a143	0.16467766
184	0x3e7c34f9	0.24629582
185	0xbe330744	-0.1748324
186	0x3df76920	0.12080598
187	0x3d4ec7ba	0.050483443
188	0x3eb477d4	0.35247672
189	0xbd4b13c2	-0.04957939
190	0x3e5d0fe8	0.21588099
191	0x3d9ee6eb	0.07758888
192	0xbe802ee2	-0.2503577
193	0x3dc1edb4	0.094691664
194	0x3e1949b9	0.14969529
195	0xbe0d0e74	-0.13775045
196	0xbc26ed00	-0.010188341
197	0x3e04361b	0.12911265
198	0xbcf5e0b7	-0.030014379
199	0x3e4fc17d	0.20288654
200	0xbda3c889	-0.079972334
201	0x3e0ffee7	0.14062081
202	0x3d9a0c4b	0.07521876
203	0xbcf07f88	-0.029357687
204	0x3dd87de6	0.10570888
205	0x3d92dd10	0.071710706
206	0xbdfc52ed	-0.12320504
207	0xbe2b2c01	-0.16716005
208	0xbdb4e0e2	-0.088319555
209	0xbcf806bc	-0.030276649
210	0xbcbeacb3	-0.023275709
211	0xbe3a48fc	-0.18191904
212	0xbd9cbfcb	-0.07653769
213	0x3eb8d2ec	0.3609842
214	0xbd635ddf	-0.055509444
215	0xbde6bb6c	-0.11266217
216	0xbdee0c3b	-0.116234265
217	0xbdde2f5b	-0.10848876
218	0xbd0cd536	-0.03438302
219	0x3d954faf	0.07290589
220	0xbd6141b8	-0.054994315
221	0xbdf9d211	-0.1219827
222	0x3e717d29	0.23582901
223	0x3e82e1f3	0.2556301
224	0x3d8008fd	0.062517144
225	0xbd341efa	-0.043974854
226	0x3e92c876	0.28668565
227	0xbd15a22f	-0.036531623
228	0xbddcf0d2	-0.1078812
229	0xbe9664a3	-0.29373655
230	0x3f039dec	0.51412845
231	0x3eeee578	0.46659446
232	0xbd861f50	-0.06548941
233	0xbeb9da9f	-0.36299607
234	0x3d295250	0.041338265
235	0x3e021c69	0.1270615
236	0xbe2415cc	-0.1602394
237	0xbe204bf8	-0.1565398
238	0x3e147c54	0.14500552
239	0x3de0f9b2	0.109851256
240	0x3d15d78d	0.03658252
241	0xbdf7f395	-0.121070065
242	0x3e7f3772	0.24923494
243	0x3d52369a	0.051321603
244	0x3cf362c6	0.029710185
245	0xbc1f5cca	-0.0097267125
246	0x3c4c16c5	0.012456601
247	0x3e7862f7	0.24256502
248	0x3e83120f	0.25599715
249	0xbeba1624	-0.36345017
250	0xbe9747ff	-0.29547116
251	0x3d2d551c	0.042317495
252	0x3d8cffd8	0.06884736
253	0x3bd3004e	0.0064392453
254	0xbe085221	-0.1331258
255	0xbc2539e2	-0.010084601

model.layer2.0.bn1.weight f4 [32]
0	0x3f44573d	0.76695615
1	0x3f73d3a3	0.95244807
2	0x3f4e026b	0.8047244
3	0x3f8689ae	1.0510767
4	0x3f53ad40	0.82686234
5	0x3f791367	0.9729523
6	0x3f443537	0.766437
7	0x3f4e9be1	0.807066
8	0x3f6aee2a	0.9176966
9	0x3f56f76b	0.8397128
10	0x3f487d4d	0.78316194
11	0x3f5053ec	0.81378055
12	0x3f81693b	1.0110239
13	0x3f6ccd3c	0.9250066
14	0x3f7b0198	0.98049307
15	0x3f4ae2d8	0.79252386
16	0x3f725892	0.946664
17	0x3f7455ad	0.9544323
18	0x3f7fb719	0.9988876
19	0x3f35277a	0.7076336
20	0x3f522f82	0.8210374
21	0x3f60ef63	0.87865275
22	0x3f772223	0.96536463
23	0x3f90be29	1.1308032
24	0x3f6196c8	0.881207
25	0x3f9e5696	1.2370174
26	0x3f49631d	0.7866686
27	0x3f6fd83f	0.9368934
28	0x3f76998b	0.9632804
29	0x3f6151d4	0.88015485
30	0x3f53f9b9	0.8280292
31	0x3f8086f6	1.0041187

model.layer2.0.bn1.bias f4 [32]
0	0x3f1a84a4	0.60358644
1	0xbe0936a1	-0.13399746
2	0xbc617a32	-0.013762044
3	0xbb659cc4	-0.0035036067
4	0x3e612efd	0.21990581
5	0xbe87f40f	-0.2655339
6	0x3d1a160e	0.03761869
7	0x3d0b7b3f	0.034053084
8	0xbe38e61d	-0.18056531
9	0xbd03e821	-0.032203797
10	0xbe2d0df1	-0.1689985
11	0xbd0d5474	-0.03450437
12	0x3e49afb9	0.19695939
13	0xbda66218	-0.08124179
14	0xbdee7ee0	-0.11645293
15	0x3da74e39	0.08169217
16	0xbe23a3b0	-0.1598041
17	0xbdc7f292	-0.097630635
18	0xbda16430	-0.078804374
19	0x3e8171ff	0.25282285
20	0xbdb121c6	-0.0864902
21	0xbd17e162	-0.037080176
22	0xbe16c114	-0.14722091
23	0xbe52dd4b	-0.20592229
24	0xbd27ceec	-0.04096882
25	0x3d01232b	0.03152768
26	0x3dc5f06f	0.09665
27	0xbcfca6b7	-0.030841215
28	0xbe765d45	-0.24059017
29	0xbe203c48	-0.15647995
30	0xbd11d491	-0.03560311
31	0x3d47e8bb	0.048805933
