simclr_epoch_30_top_accuracy_0.8065.pth (torch, 774586 bytes, 71 tensors)

module.backbone.model.conv1.weight f4 [16, 3, 3, 3]
000000 f4 58 20 bf 4d 31 3c bd 19 4d bf 3e 4a a4 55 bf
       -0.6263573 -0.045945454 0.37363508 -0.8345381
000010 17 66 09 3e 61 76 28 3f 7c a5 87 be f7 4d 9f 3d
       0.1341785 0.6580563 -0.26493442 0.077785425
000020 ea e4 7b 3d c6 bc 45 bf 2e 67 64 3e 8a d7 54 3f
       0.061497606 -0.7724117 0.22304985 0.83141387
000030 1f ad 8e bf ac 46 91 3e 03 86 92 3f 0a 02 03 bf
       -1.1146582 0.2837423 1.1447147 -0.51174986
000040 06 37 15 3e 5c 96 9f 3e 0e f6 d1 be b9 98 53 3e
       0.14571771 0.31169403 -0.41008037 0.20663728
000050 dc 15 c8 3e e7 a8 61 bf 46 b4 62 3e 61 15 27 3f
       0.39079177 -0.8814835 0.22139081 0.65266997
000060 a4 97 1a bf 43 d5 56 3d 9a aa 16 3e c9 8c 6f 3e
       -0.60387635 0.052449476 0.14713517 0.23393549
000070 32 aa 99 3e 9d 52 cf 3e 9a a4 00 3d 45 41 22 3d
       0.3001266 0.40492716 0.031406976 0.039613027
000080 87 82 59 3e 90 5e 41 be ae a1 ec be c7 fa a6 be
       0.21241198 -0.18883729 -0.46217102 -0.32613203
000090 5f 6d 97 3e 88 28 06 3e c3 ad 58 3e 15 89 26 3e
       0.2957563 0.13101399 0.21160035 0.1626323
0000a0 10 7e 33 3e 55 06 82 3e f6 6a 41 bd 6b 9c 33 be
       0.17528558 0.25395456 -0.047221147 -0.17540137
0000b0 da 5a 26 be 45 eb 46 bf d8 6d 6e bf eb e1 00 bf
       -0.16245595 -0.7770274 -0.9313636 -0.50344723
0000c0 11 b0 01 bf 99 76 b8 be af ca 03 3e 19 ed 77 3e
       -0.5065928 -0.36027983 0.12870286 0.2421154
0000d0 15 5e 0c 3f 14 21 4a 3f 10 1f 3f be 88 51 87 be
       0.5483106 0.78956723 -0.18664193 -0.2642939
0000e0 59 3c 20 3d 4c 8a 5a 3e 29 ae 3a 3e 1d 25 1b 3e
       0.039120052 0.21341819 0.182305 0.15150876
0000f0 cd c7 5f bd bb 82 5b be 7e 13 ac be 39 57 1b be
       -0.054633904 -0.21436588 -0.3360862 -0.15169992
000100 f6 c5 84 be ef fe c9 3d 32 87 dd 3e 52 ce 16 3f
       -0.25932282 0.09863078 0.43267208 0.5890857
000110 40 05 3a 3f 91 8c 05 3e 0b f9 82 3e 13 84 a3 3e
       0.7266426 0.13041903 0.2558063 0.31936702
000120 9c fe 55 be 44 cb c8 be 37 c0 c4 bc 39 07 4d 3e
       -0.20897907 -0.3921758 -0.024017436 0.20022286
000130 24 29 90 3e 5e 53 c9 3e 6f 66 49 be 0b b1 10 be
       0.28156388 0.39321417 -0.19667982 -0.14130037
000140 7e 36 1f bd e3 13 3c 3f a4 ec a9 3f 16 f2 8e be
       -0.038870327 0.73467845 1.3275342 -0.27919072
000150 fc 6e f6 3e ed e9 0b c0 dd af 9a 3e 1f d1 3a 3e
       0.4813155 -2.1861527 0.30212298 0.18243836
000160 9d 4b bc be 58 44 b6 be 76 f6 d1 be af 4c 4e 3e
       -0.36776438 -0.35599017 -0.41008347 0.2014644
000170 20 1b 98 3e fe a5 e8 bd 19 40 21 c0 2f 64 ab 3f
       0.29708195 -0.113597855 -2.5195372 1.3389949
000180 28 66 35 3e 97 85 04 3f c0 46 26 3f 3f 7d a4 be
       0.17714751 0.5176634 0.64951706 -0.32126805
000190 05 8d b7 3e 65 ea f4 be ec 0d c4 3e a0 fe 8a bf
       0.35849777 -0.4783508 0.38291872 -1.0858955
0001a0 27 c2 8c 3e ec 25 d5 3e 52 01 04 3f ea 29 73 bd
       0.27491876 0.41630495 0.51564515 -0.059366144
0001b0 38 71 cc bd 4d 82 d2 be 7f ee e9 3e ca 0e 6f be
       -0.09982532 -0.41115037 0.4568977 -0.23345485
0001c0 d7 08 e7 be 8a d8 a2 3f 60 66 ae 3e 78 35 15 be
       -0.45123932 1.2722332 0.3406248 -0.14571178
0001d0 f8 bb 3c 3e f6 91 c1 be 93 2a 3f bf ed bf 10 3f
       0.1843108 -0.37806672 -0.7467434 0.56542856
0001e0 b9 f4 47 bf 5d 8e 8c bf e2 a3 96 3f 9a 7f 66 bd
       -0.7810779 -1.0980946 1.1768763 -0.056274034
0001f0 b7 a2 e9 be bc 05 51 3e c5 55 f9 bd 5b fc 2c be
       -0.45631954 0.20412344 -0.12174562 -0.16893141
000200 c2 29 39 3f 41 f7 11 bf 8b 2a fc be 96 5b 9b 3f
       0.7232934 -0.57017905 -0.49251208 1.2137325
000210 9b 03 58 be cb 60 94 be 8b 42 05 3f 1c 09 cc 3e
       -0.21095125 -0.28980097 0.5205466 0.398507
000220 ad e6 57 3f a6 70 10 3f cc 19 96 3e 0a b2 c8 3e
       0.8433636 0.5642189 0.29316556 0.39198333
000230 b2 c8 85 bc 72 28 c0 be e2 98 56 bf 07 61 59 bf
       -0.01633105 -0.37530857 -0.8382703 -0.84913677
000240 0f 4b 1e 3e 66 da 41 3f c8 96 fb 3e 1d c4 29 3e
       0.1545832 0.75723875 0.49138474 0.16578718
000250 db 59 0a 3f 7b 18 af 3d 9e fb 17 bf 32 75 6a bf
       0.5404336 0.08549591 -0.5936831 -0.91585076
000260 31 d5 7a bf 09 7f c3 3c 0a 70 57 3e 69 fc e9 3d
       -0.97981554 0.023864286 0.21038833 0.114250965
000270 f4 76 3a 3e 87 7b f4 3e 26 6d 99 3e af ae be be
       0.1820944 0.47750494 0.29966086 -0.37242648
000280 cc 71 f0 be 96 f2 eb be 7d 2e 9b bb a2 e1 8e bd
       -0.4696182 -0.46083516 -0.0047357664 -0.0697663
000290 82 46 61 3d 21 eb 5e bd f4 3a e4 be 5f 3f f8 bd
       0.054998882 -0.054423455 -0.44576228 -0.12121462
0002a0 2b 1d 99 3d 17 21 29 be 4a c5 c8 bc d6 b5 27 bd
       0.074762665 -0.16516529 -0.024508137 -0.040944897
0002b0 87 4b 57 bd a6 4e f2 3c 2d b4 80 be 2e 74 06 bf
       -0.052562263 0.029578518 -0.25137463 -0.52521026
0002c0 6f 85 62 be 20 03 ec bd bc 02 9a be 09 15 bf 3c
       -0.22121213 -0.115240335 -0.3008021 0.02332546
0002d0 21 f5 7b 3e ee 13 8a 3e 62 52 b1 3e d5 43 62 3c
       0.24605228 0.2696833 0.34633166 0.013810118
0002e0 06 a0 81 be cb e3 c9 3d e2 2f a7 bc 1c 95 f4 bd
       -0.253174 0.09857901 -0.020408574 -0.11942503
0002f0 e0 34 8c 3e 75 c7 ba 3d ad a8 ab 3e 54 54 2b 3e
       0.2738409 0.09120075 0.33527127 0.16731387
000300 c9 ab 71 3e b3 90 11 3e 51 ce 1a 3e a1 ac 46 3e
       0.23600687 0.14215355 0.15117766 0.1940179
000310 8a d7 00 3c 4b fe 10 3d 09 b7 53 3d 37 7d 20 bd
       0.0078638885 0.035398763 0.051688228 -0.039181914
000320 bb ba 1d be c5 c1 a0 bd 91 87 ed be bc b5 ca be
       -0.15403263 -0.078494586 -0.4639249 -0.39591777
000330 a7 73 f9 3d be e9 8f be ac a5 6c be a4 e7 19 bd
       0.12180262 -0.2810802 -0.23110074 -0.037574425
000340 18 a9 c3 bd 42 c0 17 be 48 e2 03 be 3a 31 c8 be
       -0.095537364 -0.14819434 -0.12879288 -0.39100057
000350 56 fb b7 be bf 53 56 bd 66 3a a7 be 70 1a 91 be
       -0.35933942 -0.05232596 -0.32661742 -0.28340483
000360 bf 2b 9b be 19 33 9b be 54 27 64 be 63 6e c5 be
       -0.30306813 -0.30312422 -0.22280627 -0.3856078
000370 92 55 14 bf 9b 31 0e be ad 4a 05 be c5 14 b4 be
       -0.5794307 -0.1388611 -0.13016768 -0.35172096
000380 d3 f3 3c be d6 16 e3 3e 25 23 0c 3f a6 a8 90 3e
       -0.18452387 0.4435336 0.54741126 0.2825367
000390 3e 57 cb 3e 86 ca d0 3e 28 96 fd 3e e1 bd 78 3e
       0.39714998 0.40779513 0.49528623 0.24291183
0003a0 10 83 4f 3e 46 c1 63 3e 7f d1 eb bd 07 85 33 be
       0.2026484 0.22241697 -0.115145676 -0.17531215
0003b0 bd 36 c8 bd 28 31 d8 bc 44 af 89 be 65 c2 07 ba
       -0.097760655 -0.026390627 -0.2689153 -0.00051788084
0003c0 82 36 f5 bb 86 82 96 be c2 7f 6f be f1 bd 1a 3f
       -0.0074833045 -0.29396456 -0.2338858 0.6044608
0003d0 af b7 a6 3e 5f 29 fc 3d db fb 6f 3d ac 74 89 3f
       0.32562014 0.123125784 0.058589797 1.073873
0003e0 6c 98 cc be b1 40 e5 3d ac fc ab bd 6a ab 4a 3e
       -0.3996004 0.111939795 -0.08397803 0.19791952
0003f0 3c 65 a0 be fa 1b 46 be ed b7 0b be cc 35 80 bf
       -0.31327236 -0.1934661 -0.13644381 -1.0016418

module.backbone.model.bn1.weight f4 [16]
000000 e3 61 10 3f be 95 fc 3e a1 38 3c 3f b6 54 30 3f
       0.56399363 0.49332994 0.7352391 0.6887926
000010 14 eb fb 3e d2 2e 11 3f 0f 60 68 3f 0b 09 24 3f
       0.49202788 0.5671207 0.90771574 0.640763
000020 11 bd ef 3e 86 6d 14 3f 05 75 17 3f 1d 75 15 3f
       0.46823934 0.5797962 0.5916293 0.58381826
000030 a8 97 32 3f 34 bd 32 3f 94 7a 32 3f d6 e2 d2 3e
       0.6976266 0.6981995 0.6971829 0.41188687

module.backbone.model.bn1.bias f4 [16]
000000 64 ee 34 3f 3f 8a 44 be aa e9 38 be 92 5d cc 3f
       0.70676255 -0.19193362 -0.18057886 1.5966055
000010 5e 57 12 3f 7c 02 2c 3f c3 ba 62 bf 74 8b 6e be
       0.5716456 0.6719129 -0.88566226 -0.23295385
000020 e4 3f b5 be 83 b5 36 3f d3 94 62 3d fe c8 de 3e
       -0.35400307 0.71370715 0.05531771 0.4351272
000030 a5 7b c4 bb 21 a2 3e be 6f 02 e6 3e fd be 12 3f
       -0.005996185 -0.18616535 0.44923732 0.57322675

module.backbone.model.bn1.running_mean f4 [16]
000000 2e 7e 03 3c d1 59 17 3e 68 8c 69 be ab aa 98 bb
       0.008025689 0.14780356 -0.22807467 -0.004659017
000010 ef c4 ad 3c 0e 93 ac 3b c1 5d a4 3d 82 98 ef 3e
       0.02121207 0.0052665537 0.08025695 0.46796042
000020 80 cd 2e 3c 0a 67 5b be 58 1d ab 3e 50 41 44 bf
       0.010669112 -0.21426025 0.33420825 -0.7666216
000030 89 87 23 3d 42 7f 67 3d 42 9e 0c bd db c3 cf bb
       0.03992418 0.056517847 -0.034330614 -0.0063404865

module.backbone.model.bn1.running_var f4 [16]
000000 da 1b 92 3e 3c 31 a8 3d d8 df 3b 3f 13 cd 02 3d
       0.28536874 0.08212516 0.73388433 0.031933855
000010 ea 0d 75 3e 01 38 64 3e 3a 6f 18 3f 55 ec 93 3f
       0.23931089 0.22286989 0.5954472 1.1556498
000020 35 00 97 3e 29 86 03 3f 8a 28 a1 3f 00 a9 e7 3f
       0.29492345 0.5137659 1.2590497 1.809845
000030 5d 94 c3 3d d3 6e cb 3e d6 f3 38 3f 4b 06 cc 3e
       0.095497824 0.3973299 0.72247064 0.3984855

module.backbone.model.layer1.0.conv1.weight f4 [16, 16, 3, 3]
000000 68 26 f5 3c 20 17 9d bc 12 67 ec 3d bd 3c b2 3d
       0.02992554 -0.019176066 0.115430966 0.08702991
000010 17 25 bf 3d ff e8 2b 3e 83 23 9a 3d cf 5b 08 bd
       0.09333246 0.167881 0.075263046 -0.03329068
000020 0d b8 d3 3c f8 ea a6 bd bf f4 74 3d e3 f7 26 3e
       0.025844598 -0.081502855 0.05980372 0.16305499
000030 55 96 e9 3c b5 59 29 3e 2e a1 26 3e d6 e0 e8 bc
       0.028514067 0.16538127 0.16272423 -0.028427523
000040 24 d7 1e 3d 5e 20 3f 3e 0f 59 b2 bd 47 b3 4e be
       0.038779393 0.18664691 -0.08708393 -0.20185576
000050 5b c5 16 be 0c 25 03 be 9d 2d 6f bd 89 10 9a 3d
       -0.14723723 -0.12807101 -0.05839311 0.07522685
000060 b6 5d 8f bb a3 6c 30 bc 39 bc 38 3d 9e cc 12 3e
       -0.004375185 -0.0107680885 0.045101378 0.14335868
000070 f0 2d 08 3d e4 26 0e 3e 2f 96 32 bc fe 55 4c bd
       0.033246934 0.13882023 -0.010900064 -0.049886696
000080 49 7c 4c be a9 53 08 3c 7f 38 74 3e 34 63 86 bd
       -0.19969286 0.008320727 0.23849677 -0.0656189
000090 77 59 fa 3d 4c 74 6c bc 9e a8 7b 3e 83 be 13 3e
       0.12224095 -0.014432024 0.24576041 0.14428143
0000a0 fc 54 44 3e f4 c9 46 3e 13 e2 91 bc 69 4d 2e 3d
       0.19173044 0.19412977 -0.017807996 0.042554293
0000b0 67 bf 88 3c 7b 61 76 be 3a 4d a7 be 48 4e 8a be
       0.01669283 -0.24060623 -0.32676107 -0.2701285
0000c0 b8 db e1 bd b0 f1 14 be 76 41 55 3c 51 b1 1c be
       -0.11028236 -0.14545321 0.013016095 -0.15302016
0000d0 3b 40 0f be 2a 68 23 3e d0 af 3d 3e da 17 1f 3e
       -0.13989346 0.15957704 0.18524098 0.15536442
0000e0 3e 2c c2 bc 6d 64 eb 3d 2b 3a b6 3d f9 0c f3 bc
       -0.023702737 0.11493764 0.088978134 -0.029669272
0000f0 47 63 56 3e 5a 5f 1a 3e 0f be c0 3d bf d4 7f 3e
       0.20936309 0.15075436 0.09411251 0.249835
000100 61 16 5c 3e 60 11 50 3e 49 cb a4 bc 8e dd a5 bc
       0.21492912 0.20319128 -0.020116465 -0.020247247
000110 cc 3b c1 3c c6 39 1f be d7 80 33 be f3 8f 38 be
       0.023588084 -0.15549383 -0.17529617 -0.18023662
000120 4c d1 e3 3c dc b4 c4 3b a7 3f c6 bd 58 e7 f8 3c
       0.027809761 0.0060030054 -0.096801095 0.03038375
000130 e3 fd 0b 3d 62 c6 f2 bc 1b 7d f5 3d 70 d6 12 3e
       0.034177672 -0.029635612 0.119867526 0.14339614
000140 ed 17 12 3d a6 2e 28 be 02 1f 8b bd d5 7f 82 bd
       0.03566735 -0.16424045 -0.06793024 -0.06372038
000150 46 7f 84 3d ec 61 17 3e 3c 8a a0 3e 23 7a b3 3c
       0.06469588 0.14783448 0.31355464 0.021908825
000160 5c 82 c3 bd 45 1a 11 3e 41 ab 0f 3e 6d 85 69 3d
       -0.095463485 0.14170177 0.14030172 0.05701201
000170 33 08 85 bb 80 5c 94 bd 1f 04 88 bc 3b 72 97 bd
       -0.0040598153 -0.072442055 -0.016603528 -0.073948346
000180 5a 55 a0 be cb 30 83 be c7 88 58 be 4c 62 5c be
       -0.31315118 -0.25623164 -0.21145926 -0.21521872
000190 46 f2 a7 be 66 d2 b8 be 11 82 88 3d 1f 16 3b 3d
       -0.32802027 -0.3609802 0.06665433 0.045675393
0001a0 48 63 c3 bd 73 90 aa 3e 8e 58 9c 3e 40 42 0f 3e
       -0.09540421 0.3331333 0.30536312 0.13990116
0001b0 e9 d1 6f be 7e 05 89 be 71 79 2a bd 45 02 18 be
       -0.23419918 -0.26762003 -0.04161972 -0.14844616
0001c0 fe 9d 8b be 39 f8 83 3b 69 57 6b 3e 89 ae e9 3c
       -0.27268976 0.004027393 0.22982563 0.028525608
0001d0 e0 f2 33 3d 70 c7 d0 3d 35 d1 2a 3e 73 cc 1b 3d
       0.043932796 0.1019429 0.16681369 0.038036775
0001e0 1d 6b 3a 3c e8 eb 70 3d 20 45 74 3c 61 b5 20 3e
       0.011378077 0.058818728 0.014909059 0.1569419
0001f0 2d a1 da 3d 40 b3 b0 3d df c5 8e bc 29 76 63 3e
       0.10675273 0.08627939 -0.017428337 0.22213043
000200 a9 02 86 3e c8 5f ee bd 10 b1 d7 3d 80 75 97 3e
       0.26173905 -0.116393626 0.10531819 0.29581833
000210 03 86 9c be 7f 99 e7 bd 2d dd 85 3c 7e 48 30 be
       -0.30570993 -0.11308574 0.016340816 -0.17215154
000220 8c 9e cc 3c d8 92 0d 3e 92 27 3b be 17 9e ba bd
       0.024977945 0.13825548 -0.18276814 -0.091121845
000230 1e f5 e5 3c 87 2d 79 3d 6e 9b 94 3d bb 8a 14 3e
       0.028070983 0.060834434 0.07256208 0.14506046
000240 2f 16 c2 bc 00 09 e1 bd a3 60 94 3d 09 8f 36 3d
       -0.023692219 -0.10988045 0.072449945 0.044570003
000250 a8 f8 b4 3c 9d f5 8c 3d e0 cc e6 3c 5b b8 84 3d
       0.022091225 0.068827845 0.028173864 0.064804755
000260 52 89 88 3d 8d 73 5c 3e bd 3e 62 3e f4 7c 65 3e
       0.06666817 0.21528454 0.22094245 0.22410947
000270 2d 81 1d 3e be b6 0b 3e 82 b9 04 3e f3 84 b6 3d
       0.15381308 0.1364393 0.1296139 0.08912077
000280 68 81 8d 3c 7a 82 b0 3c 22 af 43 3e 70 82 57 3e
       0.01727362 0.021546591 0.19109777 0.21045852
000290 8a e9 9a 3e 58 10 f9 3d 49 1b 1e 3e ff 77 06 3e
       0.302563 0.121613204 0.15440096 0.13131712
0002a0 f0 bd c1 3d 65 fe 3c 3e 12 e2 26 3e 2b cb 78 3e
       0.09460056 0.18456419 0.16297176 0.24296252
0002b0 be 64 af 3e de b0 99 3d 24 c3 28 be 3a c2 8b bc
       0.34256548 0.07504438 -0.1648069 -0.017060388
0002c0 82 bf 81 bd cb 92 61 3d 0b 27 93 bd e0 f7 21 bd
       -0.06335355 0.055071633 -0.07185181 -0.039543033
0002d0 70 0f bb 3b f5 12 86 3d 07 ba e9 3d 70 d7 71 3d
       0.0057086274 0.065465845 0.11412435 0.059043348
0002e0 2f f6 da 3d 26 00 55 3d 34 b7 27 3d 22 32 48 3d
       0.10691487 0.052002095 0.0409462 0.048875935
0002f0 d9 1b ba 3c cc 3f 31 3e 2d ec 6b 3d 26 51 49 bd
       0.022718357 0.17309493 0.05759828 -0.049149655
000300 06 cc be 3d 01 8e 63 3d cd 55 e4 3d 92 d7 6e 3c
       0.09316258 0.055555347 0.11149178 0.014577763
000310 75 f6 58 bd aa 04 94 bd 4c 15 a6 bc 41 58 5c bd
       -0.052969415 -0.07227452 -0.020273827 -0.053795103
000320 2e db 95 bc 93 66 d4 3b 1d da d5 3c ca 1c af 3d
       -0.01829299 0.0064819544 0.026104981 0.08550413
000330 36 56 8f 3d 33 7e 4c 3c db 32 e5 3d ea b1 8a 3d
       0.06998865 0.01248126 0.111913405 0.06772216
000340 c3 78 b0 3d bc 1b 9c 3d 6d 28 46 3d 76 54 fd 3d
       0.086167835 0.076224774 0.048378397 0.12369625
000350 a8 69 c0 3d ad 64 3b 3d 22 b7 6c 3d 2c 36 7a 3d
       0.09395152 0.04575031 0.057791837 0.06108682
000360 57 cb 2f 3e 36 71 fa 3d f2 a3 de 3d d4 b8 5d 3e
       0.17167412 0.122286245 0.10871114 0.21652538
000370 ee 90 e5 3d 0b 37 fa 3d 9d 57 14 3e 0c b0 76 3d
       0.11209284 0.1221753 0.14486547 0.060226485
000380 f5 1e e3 3d 00 62 0a 3e 76 25 34 3e f6 e0 3c 3e
       0.11089889 0.13513947 0.17592415 0.18445191
000390 de 09 1f bd a8 be d6 3c c7 65 c4 3d 88 e7 2a be
       -0.03882777 0.026213959 0.09589725 -0.16689885
0003a0 1a 8c e5 bd 48 83 ab bd 74 e6 f0 3b 01 35 94 3d
       -0.11208363 -0.08374649 0.007351691 0.07236672
0003b0 0b cb cd 3d 03 fe 0b 3d 26 cb 68 3d 96 d5 98 3d
       0.10048493 0.03417779 0.056834362 0.07462613
0003c0 9c f4 57 3d 94 e7 cc 3c 81 c0 87 bc 4a 17 46 3e
       0.052723512 0.025012769 -0.016571285 0.19344822
0003d0 36 29 1b 3e cb 15 91 3e 7c f5 3a 3e 77 79 47 3e
       0.1515244 0.2833694 0.18257707 0.19479929
0003e0 d5 d7 dd 3e 0c 96 5c 3d 10 8c 58 3d bb 7a 85 3e
       0.4332873 0.053854033 0.05286795 0.26070198
0003f0 09 db e7 bd 49 71 29 bd af 13 b7 bd dd aa a4 3d
       -0.113210745 -0.041367803 -0.08939301 0.08040402

module.backbone.model.layer1.0.bn1.weight f4 [16]
000000 1a e5 00 3f 76 c6 49 3f db 2f 62 3f ff 1f 3c 3f
       0.5034958 0.7881845 0.8835427 0.7348632
000010 43 13 68 3f df 7f 1c 3f 6d 5b 67 3f 3d e9 37 3f
       0.9065439 0.61132616 0.9037388 0.7184027
000020 e1 92 40 3f 1e 30 73 3f f5 3e 2b 3f ea b9 64 3f
       0.7522412 0.94995296 0.6689294 0.8934618
000030 ca 28 5d 3f e9 7e 5c 3f 0d ab 5f 3f 8f d7 50 3f
       0.86390364 0.8613115 0.8737038 0.81578916

module.backbone.model.layer1.0.bn1.bias f4 [16]
000000 a6 8b 86 3e 03 59 2b bf 7c 85 25 3e 7a 51 55 3e
       0.26278418 -0.66932696 0.16164201 0.20831862
000010 2a 28 a5 3e e5 05 50 3e 2e a6 ab bd 04 1c 19 3f
       0.32257205 0.20314749 -0.08381306 0.59808373
000020 f6 37 97 3e 8b 1f ed 3e f2 e5 34 3f 54 da 7b 3f
       0.29534882 0.46313128 0.7066337 0.9838002
000030 49 16 38 3f 10 52 4d bf d3 fb 5a bd 15 8a 7c be
       0.71909004 -0.8020334 -0.053462815 -0.24662049

module.backbone.model.layer1.0.bn1.running_mean f4 [16]
000000 e1 58 2c 3f ac 61 78 40 66 7f 99 bf bb f7 15 c0
       0.6732312 3.8809614 -1.1992004 -2.3432453
000010 83 0f 89 bf 0a df ab bf 94 4e 89 3f 63 dd 0d 40
       -1.0707859 -1.3427441 1.0727105 2.2166374
000020 fd 8e a5 c0 e6 12 5a c0 2d 1c ad bf 2f e5 d0 bf
       -5.1737046 -3.4074035 -1.3524224 -1.6319941
000030 1e f3 4a bf aa 42 03 40 b4 18 53 3f 61 b8 db bf
       -0.7927722 2.0509439 0.8245957 -1.7165643

module.backbone.model.layer1.0.bn1.running_var f4 [16]
000000 00 4d 52 3f ec 65 df 3f 40 11 3d 3f 2d 40 b4 40
       0.8214874 1.7452979 0.73854446 5.632834
000010 0e b1 47 40 12 c2 65 3f cd 45 e1 3e 51 10 fb 3f
       3.1201816 0.8974925 0.43998566 1.9614354
000020 23 32 3b 40 e9 25 03 40 8c 5f fe 3e 44 40 86 3f
       2.924935 2.0491889 0.4968227 1.0488362
000030 1d 70 69 3f 85 51 71 3f d3 a5 57 40 1d 83 53 3f
       0.91186696 0.94265014 3.369496 0.8262194

module.backbone.model.layer1.0.conv2.weight f4 [16, 16, 3, 3]
000000 85 5c 8a 3d 5c 8c e6 3c 7a f6 87 bd 4d e6 2d 3e
       0.06755928 0.0281431 -0.066388085 0.16982384
000010 ed 0b f9 3d cd 8f 81 3d 90 c3 eb bb 5a 19 5a 3d
       0.12160478 0.06326256 -0.0071949437 0.053246833
000020 58 a4 71 3d 5c 19 26 3d 1d a3 4f bd db 00 19 3d
       0.05899462 0.04055153 -0.050692666 0.03735433
000030 66 5f 3a bd 21 1e 6e bd 0f 87 55 3d b9 0a 32 be
       -0.045501135 -0.058134202 0.052130755 -0.17386903
000040 ed b3 cb bd b0 9d 05 bd 1a 20 42 be 93 99 95 bd
       -0.099464275 -0.032621086 -0.18957558 -0.073046826
000050 2a 85 2a be fd 4b 72 be 04 26 74 3d d9 99 c7 3d
       -0.1665236 -0.236618 0.059606567 0.09746141
000060 e4 ba ab bd b2 c6 0d 3e 6c 6f 29 3e cb 61 c4 bc
       -0.08385256 0.13845327 0.1654641 -0.023972413
000070 e8 42 14 bc ea 07 49 3d 62 c8 a2 3d 66 8c 67 3d
       -0.009049155 0.049079813 0.07948376 0.05653038
000080 ea fd c7 3d 52 77 9f bd 0a 29 c9 bd 31 0c b5 bd
       0.09765227 -0.077864304 -0.09822281 -0.08840216
000090 2b 62 fa bd 5f a3 95 bd 24 5c 19 bd c5 de fd bd
       -0.12225755 -0.07306551 -0.037441388 -0.123960055
0000a0 77 b0 86 be 63 24 27 be 55 9e 0b be b1 03 05 be
       -0.26306507 -0.16322474 -0.13634618 -0.1298969
0000b0 bd 00 4e be ec a0 22 3e 33 86 50 3d 9a 11 b5 3d
       -0.20117469 0.158817 0.050909232 0.08841248
0000c0 b8 68 c5 3d fd 8f 8e bc b5 dc f9 3c e6 f3 54 bd
       0.09639114 -0.017402643 0.03050075 -0.051990412
0000d0 9c 81 99 bd 88 13 c6 bd c3 06 ea 3d ba 7e 28 3e
       -0.07495424 -0.09671694 0.11427071 0.16454592
0000e0 8a cd 8c 3d 0a ff 47 3d 6d 70 c6 3d bb c2 27 3d
       0.06875141 0.04882721 0.09689412 0.040957194
0000f0 05 4e 93 3d df f3 d9 3d 5b da 23 3d 47 56 20 be
       0.071926154 0.10642218 0.040003162 -0.15657912
000100 bc f0 d6 bc d1 95 23 3e 2d d8 0f be 2c f4 c6 bd
       -0.026237838 0.15975119 -0.14047308 -0.09714541
000110 85 25 0f 3d 57 8b 17 be ea 0c 9a be a6 b6 cb be
       0.03494789 -0.14799248 -0.30087978 -0.39787787
000120 7d da 23 3d d2 6e 92 bd 87 ec b5 bc 0e 16 9a bd
       0.04000329 -0.071500435 -0.022207512 -0.07523738
000130 9e fb f3 bd 67 31 4b bd 32 a6 2c bd c8 3c b3 bd
       -0.119132265 -0.04960766 -0.042150684 -0.087518275
000140 30 37 21 be 84 6e b3 bd ae 93 f1 3c 5d f0 c9 3e
       -0.15743709 -0.087613136 0.029489364 0.39441195
000150 07 ca 13 be 97 e4 9b 3c 97 fd b9 3e de 1a 2f 3d
       -0.14432536 0.019029899 0.36326286 0.042750232
000160 e8 53 cc bd 1b 3d 32 bd e5 42 2d 3d ec 35 fc bb
       -0.09976941 -0.043515306 0.042300124 -0.0076968577
000170 dc 4c 66 3a 82 0b 53 bc b1 89 59 3d 4a cb 82 3d
       0.00087852567 -0.012881162 0.05310983 0.063864306
000180 12 95 6e bd 2b e1 00 3c d9 9b 91 bd 61 d7 4f 3b
       -0.058247633 0.007866184 -0.07109804 0.003171407
000190 89 e4 70 be 48 60 39 be 9c 5b 97 3b e5 75 53 be
       -0.23524679 -0.18103135 0.004619075 -0.20650442
0001a0 6b b5 5f be 67 58 2f 3d d7 2e 55 be 8b 72 36 be
       -0.21846549 0.042808916 -0.20818649 -0.17817132
0001b0 7a f6 4f 3e 41 f6 af 3c 80 3f 65 bd 0a ae 9d 3e
       0.20308867 0.021479728 -0.05596876 0.30796844
0001c0 3d 42 12 3e 66 0b 02 be b8 83 45 bd c0 e2 6d be
       0.1428308 -0.1269966 -0.04822132 -0.2323103
0001d0 39 09 49 be 3b 26 49 bd ea 62 da 3d 40 b3 6d 3d
       -0.19632424 -0.049108725 0.106633976 0.058032274
0001e0 84 a9 32 3c 2c 7e 03 be cb 55 ea bc 39 ad b2 bc
       0.0109046735 -0.128411 -0.028605362 -0.021811115
0001f0 27 10 14 be be 60 f6 bd 67 b9 0a 3d ff ae b4 3b
       -0.14459287 -0.12030171 0.03386822 0.005514025
000200 c8 44 16 be c8 d7 3c be 42 07 0f be fe 7f ac bc
       -0.14674675 -0.18441689 -0.13967612 -0.021057125
000210 bf d8 41 be c0 00 0e be 70 21 80 3c e1 2b bf 39
       -0.18930338 -0.13867474 0.015640944 0.0003646305
000220 b9 20 99 bc 4a 0b d2 bb 96 c6 07 3e 20 a4 70 bd
       -0.018692361 -0.006410037 0.13259348 -0.05875027
000230 1e 95 d4 bd b7 29 1a bc e0 b1 b3 bd 33 5e cc bd
       -0.10380004 -0.00940936 -0.08774161 -0.099789046
000240 ca 06 6e be 29 f0 27 be b3 e0 8f 3d 29 92 20 be
       -0.23244777 -0.16400208 0.0702528 -0.15680756
000250 e8 4a c2 bd 16 47 0d 3e 70 c3 46 3b 16 1b 93 3c
       -0.094869435 0.13796648 0.0030328892 0.017957252
000260 59 74 19 3e 1f d0 f4 3d 4b 6b 5a 3d 21 3a 8b bc
       0.1498579 0.119537584 0.05332498 -0.016995491
000270 ac fb 33 3d 5c 09 1f 3d db 0f 8d bd bf 51 64 bd
       0.043941185 0.038827285 -0.0688779 -0.05574202
000280 b6 b0 dd bc 6d d6 41 bd 68 21 6a 3e 4f 2c d2 3e
       -0.027061801 -0.047323633 0.22864306 0.4104943
000290 52 6f 5d 3e 0a 9f 80 3d 13 3d da 3d 46 43 22 3d
       0.21624497 0.06280334 0.1065618 0.03961494
0002a0 3d b8 5d be 72 20 ba be 58 9c d0 be 14 73 f6 3e
       -0.21652313 -0.3635288 -0.4074428 0.48134673
0002b0 b4 57 29 3f 85 8a 3f be 00 04 19 3f 18 b9 30 3f
       0.6614945 -0.18705185 0.5977173 0.6903243
0002c0 17 04 14 be 45 b0 7e 3d 1a 59 e0 3d ea f3 fc be
       -0.14454685 0.062179822 0.10954495 -0.49404842
0002d0 0c 94 14 3e ed 3e 33 3d a9 43 0a 3e 1e 94 2f be
       0.145096 0.043761183 0.13502373 -0.17146346
0002e0 5e 7f 2b be 7c e1 e2 bd 8b a9 a6 bc 1b 77 88 bb
       -0.16747805 -0.11078164 -0.020344516 -0.004164589
0002f0 ee 69 1e bd d3 38 8f be 0c c5 a8 be 8f 4b 55 bd
       -0.03867524 -0.2797304 -0.32962835 -0.05207401
000300 02 ef bf bd 1e f7 e4 bd 95 78 83 3d cf cd eb 3c
       -0.09371759 -0.11179946 0.064194836 0.02878466
000310 20 ad 20 3d b4 37 0f 3e 26 a7 44 be d4 bd 75 be
       0.039227605 0.13986093 -0.19204387 -0.23998195
000320 4f 5a 3e bd 05 62 d3 bd 86 36 0c be 45 8a 9f 3d
       -0.046472844 -0.1032143 -0.13692674 0.07790045
000330 10 73 3b 3e 99 9f 60 3d 4f 10 00 3a a7 12 98 bc
       0.18305612 0.054839704 0.00048852427 -0.018563582
000340 1b cd 33 bd 30 18 40 be 1e 3d b8 3b e4 6b b5 bd
       -0.043896776 -0.18759227 0.00562252 -0.08858469
000350 69 e2 bb bd c3 de 52 3e 9e 52 92 bd c8 39 87 bd
       -0.09174044 0.2059279 -0.07144664 -0.06602818
000360 e1 b7 68 be 66 8c 19 bd e2 39 86 3e c5 32 c9 3c
       -0.22726394 -0.03748741 0.26216036 0.024560342
000370 7a 22 ff 3d fd ce 52 3e 64 70 cf 3d f5 0c 45 3e
       0.12457748 0.20586772 0.10128859 0.19243224
000380 4a 62 b1 3d 09 59 2d 3d 7a 2b 78 3e 4f 31 c8 bc
       0.08661325 0.04232124 0.24235335 -0.024437575
000390 ce 07 3d 3d 78 dc 1f 3e 2d d7 ce 3d 7a 35 3e 3e
       0.04615002 0.15611446 0.10099635 0.18575087
0003a0 49 84 06 3e 91 64 35 bd 74 fe b7 3e 33 6f fe 3e
       0.131364 -0.04428536 0.3593632 0.49694213
0003b0 24 5f b2 3e ff 3d 15 be 4f 96 e8 bd d3 88 4a be
       0.34838212 -0.14574431 -0.11356794 -0.19778757
0003c0 3c 18 34 bf ec de 35 bf b1 4b 4c bf 6b f6 95 bc
       -0.7034948 -0.71043277 -0.79802996 -0.018305978
0003d0 7a 48 07 be dc 97 a2 bc 6e 8b 31 3e a0 23 81 bd
       -0.13211241 -0.019847803 0.17338344 -0.06305623
0003e0 f0 f6 04 3c a4 64 88 3e 3c 76 10 3d 10 df a6 3d
       0.008115515 0.26639283 0.035269007 0.081480145
0003f0 c4 24 7c be cb ee 21 be 75 8b 07 3f d5 49 a7 be
       -0.246234 -0.15813749 0.5294717 -0.32673517

module.backbone.model.layer1.0.bn2.weight f4 [16]
000000 2d b5 aa 3e e4 ae 7d 3f dc 1d 05 3f 17 ee 64 3f
       0.3334135 0.99094987 0.51998687 0.89425796
000010 3b 89 7b 3f 26 14 53 3f ad 1f 3b 3f 74 54 57 3f
       0.9825627 0.8245262 0.7309521 0.8411324
000020 2f 0a 16 3f 14 23 88 3f 03 b1 fb 3e 0e 07 e5 3e
       0.5860929 1.0635705 0.49158487 0.44731945
000030 38 87 04 3f a1 6e 1b 3f fa da fe 3e f7 51 34 3f
       0.5176883 0.6071568 0.4977644 0.7043757

module.backbone.model.layer1.0.bn2.bias f4 [16]
000000 75 66 e8 be b4 d6 f4 be ad cb 9a 3d 5e 15 85 be
       -0.4539067 -0.47820055 0.07558379 -0.25992864
000010 1b 30 2a 3e 95 28 87 bf 8e 85 ec 3d 55 52 29 3d
       0.16619913 -1.055926 0.11548911 0.041338284
000020 59 e0 98 3e 90 e6 a4 3e 20 00 9e bd a3 53 ed 3e
       0.29858664 0.32207155 -0.077148676 0.46352872
000030 b8 af 73 be 0b 97 c5 3d b5 df 81 bf 6c e4 0e be
       -0.237975 0.0964795 -1.0146395 -0.13954324

module.backbone.model.layer1.0.bn2.running_mean f4 [16]
000000 8b a1 1e c0 09 e7 41 3e 55 6c 41 bf c9 0d 66 bf
       -2.4786098 0.18935789 -0.75555927 -0.89864784
000010 74 49 2f bf 01 86 98 be 5f 7a 5a c0 6a 19 35 c0
       -0.68471456 -0.29789737 -3.413719 -2.8296762
000020 3e 91 60 3d f2 ba 15 c0 1d b9 d7 bf 66 d1 9d 3c
       0.054826014 -2.3395352 -1.6853367 0.019264888
000030 43 e7 55 40 0c 57 c1 bf 02 d3 1f bf 96 eb bb 3e
       3.34224 -1.510469 -0.6243135 0.36703175

module.backbone.model.layer1.0.bn2.running_var f4 [16]
000000 55 fd 1c 40 ce f8 03 40 43 79 b4 3f 79 fd a8 40
       2.4529622 2.0620608 1.4099506 5.2809415
000010 7b 12 bd 40 00 65 e4 3f 69 18 40 40 83 e0 5a 40
       5.908506 1.7843323 3.0014899 3.419953
000020 01 24 85 40 3c d1 b3 40 b6 0b 3d 40 be 94 16 40
       4.160645 5.6192913 2.9538398 2.3528285
000030 3b 77 46 40 4b 1e 74 40 b9 a9 6d 3f f4 69 de 40
       3.1010273 3.814349 0.928371 6.9504337

module.backbone.model.layer1.1.conv1.weight f4 [16, 16, 3, 3]
000000 44 23 a0 bb 85 dc 88 bc 25 30 15 bd 71 b5 ca bd
       -0.0048870165 -0.016706714 -0.036422867 -0.098978885
000010 7d 65 f7 bd ed 0b 9a bc 58 81 af bd 7d d0 ec b8
       -0.12079904 -0.018804515 -0.08569592 -0.00011292191
000020 cc 91 70 3d df eb 10 3c 3f e2 43 3d 03 66 3d 3d
       0.058732793 0.008845299 0.047823187 0.046239864
000030 dd 6b 81 3d d9 62 01 3e a0 a3 aa bd 5e 58 9d bd
       0.063194014 0.12635364 -0.0833199 -0.0768287
000040 92 25 58 bd ac 46 2e be 51 45 ae 3d 2b a0 91 3d
       -0.052770205 -0.17019147 0.08509315 0.07110628
000050 f4 f8 1b 3c 08 af ca 3d c9 aa 10 3d 2a 9f 59 3c
       0.009519804 0.09896666 0.035319123 0.013282577
000060 82 fd ee bd 1c 5c 08 be f5 26 91 bc 4a c6 22 be
       -0.116694465 -0.13316387 -0.017718771 -0.15895954
000070 d5 65 5d be 17 70 27 3e 11 b2 67 be 58 73 c3 3d
       -0.21620877 0.16351353 -0.2262652 0.095434844
000080 a6 8a ff bd ba b0 41 3f a4 eb c2 3e 8a 65 60 be
       -0.12477617 0.7566029 0.38070405 -0.21913734
000090 70 b1 a7 bd 9f 72 bf bd a5 a4 83 3e 8a 28 c2 bd
       -0.081881404 -0.09348034 0.2571155 -0.094803885
0000a0 3f f6 a5 3c 1b fe 0d 3c ab b2 c1 3e b7 34 b4 3e
       0.02025902 0.0086665405 0.37831625 0.35196468
0000b0 70 85 4b 3c d7 01 c6 bd 80 22 e4 bd f0 18 37 bc
       0.012421951 -0.0966832 -0.11139393 -0.011175379
0000c0 62 f7 1b 3e c4 63 22 bd c5 6f 9e bb b9 0e 08 bd
       0.15231088 -0.039645925 -0.0048351013 -0.033217166
0000d0 83 70 88 3c 8d 08 2f be 32 4a ef 3d b3 13 c3 3c
       0.016655212 -0.17093106 0.116840735 0.023813104
0000e0 f7 62 12 3d 8d e3 cc 3d 0d a7 52 3d 19 fc ab 3d
       0.03573891 0.10004339 0.051428843 0.08397693
0000f0 05 9f 44 3d 7d 30 89 bd 5b 63 c7 3d ee fc 90 bd
       0.048003215 -0.066987015 0.097357474 -0.070794925
000100 74 91 6b bd 04 e4 80 bb 65 55 e3 bb 49 2d 3a bc
       -0.05751176 -0.0039334316 -0.00693767 -0.011363336
000110 fb 3a c8 3c 1b cd 6b bd b4 a8 94 bc 32 dd 5b bd
       0.024442187 -0.05756865 -0.01814685 -0.053677745
000120 ec 74 05 3d 24 74 f7 3d e1 0b e5 3d bd 86 ae 3d
       0.03258221 0.12082699 0.11183906 0.08521793
000130 98 9a 0c 3c 02 89 f6 3c a3 fa 63 3d 61 43 99 bd
       0.00858178 0.030094627 0.055658948 -0.07483555
000140 af 94 93 bc 4b 9a 6b 3e cf 55 f1 3d c2 6e 24 3e
       -0.018015234 0.23008077 0.11783945 0.16057876
000150 e9 18 08 3f 5c 16 ed 3e af 92 4a 3e e9 a8 97 be
       0.5316301 0.4630612 0.19782518 -0.29621056
000160 a0 c8 ac bd d3 dc ee bd 33 af 73 3d 66 df 11 3d
       -0.08436704 -0.116632126 0.059493255 0.03561344
000170 d1 ef dd 3d bf 16 a1 3e d7 04 85 3e 89 7e aa 3d
       0.10836757 0.31462666 0.25980255 0.08324916
000180 aa c8 30 3e 79 da d0 3d 00 bf a0 bb 6e 19 01 3e
       0.17264047 0.1019792 -0.0049055815 0.12607357
000190 57 f9 8f 3d 5a de e2 bb cf 2c e1 3d 29 59 f4 3d
       0.0702998 -0.006923479 0.10994875 0.119310685
0001a0 b0 fa 06 3c b9 b4 9d 3b 36 de 07 bd d1 88 e6 bc
       0.0082384795 0.0048128036 -0.0331709 -0.028141411
0001b0 56 a2 53 3e 1b 5a a4 3d 69 4e 3b 3b c6 63 bb bb
       0.20667395 0.08024999 0.0028580672 -0.005718681
0001c0 74 86 4a 3d 7d 18 bd bd cd 8a c1 39 d5 0c 3e 3d
       0.04944463 -0.092331864 0.00036915243 0.046398956
0001d0 ac 75 9a bd 0f 61 c0 be 62 65 85 be 5c 63 4e be
       -0.075419754 -0.3757405 -0.2605391 -0.2015509
0001e0 b6 f8 64 be 89 08 9a be 77 da 95 be 5a 1e 9e bd
       -0.223605 -0.30084637 -0.29268238 -0.07720633
0001f0 82 58 f5 bd 3f a2 02 be 14 fa a7 bd 50 56 a6 bd
       -0.11979772 -0.12757204 -0.082019955 -0.081219316
000200 b2 8f de bd 9f bd 9d 3c eb f6 6e 3b c2 ad 8a 3b
       -0.108672515 0.019255457 0.0036463093 0.0042321393
000210 5a 4d 06 be 17 08 97 bd 1a 3e 8d 3d 7f bd b4 bd
       -0.13115445 -0.0737459 0.068966106 -0.08825206
000220 7a 6e 00 3e d2 cb b4 3d 39 47 ae 3d 89 f0 11 3d
       0.12542143 0.08827938 0.085096784 0.035629783
000230 5a a5 2b bc c0 bd 1e be fc 89 47 be f2 99 82 be
       -0.010476435 -0.15502071 -0.1948623 -0.25508076
000240 a2 1e a4 3d 4a 28 bb bd 07 63 df bd b5 47 1c 3e
       0.08013655 -0.09138544 -0.1090756 0.15261729
000250 3d c6 bd bd e6 ba 01 be b4 49 5e 3d 24 6a e6 bd
       -0.092663266 -0.12668952 0.054269508 -0.112507135
000260 94 2c 13 be a3 96 31 be 05 a8 2c be 8e 10 73 bd
       -0.14372474 -0.1734262 -0.1686097 -0.05934196
000270 bb fc f8 bd ce 43 a4 bb a2 a3 8c 3c f5 42 60 bd
       -0.121575795 -0.0050129658 0.01716787 -0.054751355
000280 5a ce 6b ba 7a 49 38 3e ef f8 30 be b2 2e cc bd
       -0.00089952874 0.17996779 -0.1728246 -0.09969844
000290 bb 52 e2 bd 51 84 ac bd b2 58 1e bc ae 93 94 3d
       -0.11050936 -0.08423675 -0.009664701 0.0725473
0002a0 c1 d8 da 3c b3 e7 da 3d 87 f8 cd 3d 58 c9 24 bd
       0.026714684 0.10688724 0.100571685 -0.04023108
0002b0 28 08 d8 bb 6b 92 e8 bd e9 2c ac 3d 28 d9 f4 3d
       -0.006592769 -0.11356052 0.084070034 0.11955482
0002c0 11 62 3a be 9f 6b 06 be 88 f6 37 3d 23 b5 39 3e
       -0.18201472 -0.13126992 0.044912845 0.18135504
0002d0 d4 19 4c be de b3 24 3e db 3c 74 bb 2e 58 fd bb
       -0.19931728 0.16084239 -0.0037267718 -0.007731459
0002e0 85 d0 83 3e 9f 0e 8b 3d be f8 ae bd d6 15 8f 3d
       0.25745025 0.06789898 -0.085435376 0.06986587
0002f0 94 50 fd bc cc a5 77 3c 9f 04 a8 bd a4 f8 25 bd
       -0.030922212 0.015115213 -0.082040064 -0.040520325
000300 1d 3a 7b bd 5c ab 3d bd 11 82 12 3d fb 1b 52 3c
       -0.061334718 -0.046306 0.035768572 0.012824054
000310 85 d3 94 bc db 0e b6 3d 66 35 b7 bd e7 82 ca 3c
       -0.018167267 0.08889552 -0.08945732 0.024720622
000320 23 2e 4a 3c 6b 3f 06 bd c1 c7 93 bd ed bc af bc
       0.012340101 -0.032775324 -0.072158344 -0.021452392
000330 ac 70 a6 bd 08 ad a1 bd e7 86 ad bd 88 79 ee bd
       -0.08126959 -0.07894331 -0.08472996 -0.11644274
000340 f8 3d 02 be 6c 77 90 bd c2 ac 60 be e1 f3 ec bd
       -0.12718952 -0.07054028 -0.21940902 -0.11569954
000350 59 44 df bc 32 c6 30 be 70 42 25 3c 82 2e 1f 3e
       -0.02725427 -0.17263106 0.010086641 0.15545085
000360 e1 4f 1b be a7 30 c3 bd 98 63 00 bd 7c 0e 03 be
       -0.1516719 -0.09530764 -0.03134498 -0.12798494
000370 31 c0 1b bc c0 7b 2f 3c 62 1a c2 bc 24 61 45 bd
       -0.009506271 0.010710657 -0.02369422 -0.048188344
000380 a6 ab 5a 3d b9 e0 ee 3d bb 2b c6 bd 64 3f 05 be
       0.053386353 0.11663956 -0.0967631 -0.13012463
000390 5e e0 b2 3d 57 9a 06 be e3 93 53 3e 5c f6 d4 3e
       0.08734201 -0.13144813 0.20661883 0.41594207
0003a0 96 70 90 bd a8 32 76 bd 72 71 85 bd 16 45 1c be
       -0.07052724 -0.060106903 -0.065157786 -0.15260729
0003b0 26 04 41 be a1 85 66 bd 4b c9 51 bd 30 77 51 bd
       -0.18849239 -0.056279782 -0.05121736 -0.051139057
0003c0 f6 42 91 3b 2e a1 56 3d a1 a3 6f 3d e4 50 66 bb
       0.004433031 0.052399807 0.058505658 -0.003514343
0003d0 c2 b9 90 3e af 3a cc 3e 0a c4 70 3d 26 15 87 3e
       0.28266722 0.39888522 0.058780707 0.26383322
0003e0 24 6d c4 3e 62 a9 5d 3d 33 53 03 3e 0a ce ee 3d
       0.38364518 0.054116614 0.12824707 0.116603926
0003f0 35 de 10 be 66 e4 50 be 12 72 5d be de 23 99 bd
       -0.14147265 -0.20399627 -0.21625546 -0.07477544

module.backbone.model.layer1.1.bn1.weight f4 [16]
000000 57 b6 62 3f a6 48 3d 3f 97 90 25 3f a9 35 5f 3f
       0.8855948 0.7393898 0.6467375 0.87191254
000010 53 58 1c 3f 33 c5 4e 3f f6 4d 80 3f b2 ca 54 3f
       0.6107227 0.8076965 1.0023792 0.8312179
000020 9e 23 9f 3f 1d 45 5c 3f 52 82 5e 3f 39 f8 68 3f
       1.2432745 0.8604296 0.86917603 0.9100376
000030 ee 14 79 3f 3e 51 8c 3f 10 dc 2d 3f 91 13 70 3f
       0.9729756 1.0962293 0.67913914 0.93779856

module.backbone.model.layer1.1.bn1.bias f4 [16]
000000 9e 76 2c be e4 2f b9 be c9 2b ef be ab d8 40 be
       -0.16842124 -0.3616935 -0.46713093 -0.18832652
000010 40 b9 b5 3d 33 c0 21 be e5 bc c5 bd 7d e6 ac be
       0.08873224 -0.15795974 -0.096551694 -0.337696
000020 26 86 62 3e f3 c7 ee be bb 74 2e be 40 5f 54 3e
       0.22121486 -0.46636924 -0.17036717 0.2073946
000030 35 c8 a2 bd fc db e1 bd fd 0a e3 bd 57 aa a9 be
       -0.07948343 -0.11028287 -0.1108608 -0.3313777

module.backbone.model.layer1.1.bn1.running_mean f4 [16]
000000 b0 ca 1a 40 8c 18 8d 3f bd 3b 8a 40 e0 3f 12 be
       2.418621 1.1023116 4.3197923 -0.14282179
000010 f1 e8 d4 bf a6 8b a3 c0 38 d5 a3 bf df 3d c1 bf
       -1.6633588 -5.110797 -1.2799444 -1.5097007
000020 99 f1 7a c0 57 1e 8e bf f2 38 5c be 92 4e c0 bf
       -3.920996 -1.1103009 -0.21506098 -1.5023978
000030 2a 81 9a 3f b3 85 aa bf 4e 6d 36 bf 1c 35 0e c0
       1.2070668 -1.3322052 -0.71260536 -2.2219915

module.backbone.model.layer1.1.bn1.running_var f4 [16]
000000 7c dc 5d 40 b9 97 b8 3f 25 68 d9 3f 53 2b 34 40
       3.4665823 1.4421302 1.6984907 2.8151443
000010 58 b8 15 40 a7 28 81 40 18 c2 9b 40 41 d1 68 3f
       2.3393764 4.0362124 4.867443 0.90944296
000020 cf 80 0d 41 86 4b 9c 3f a8 29 44 40 d5 ee 83 40
       8.843947 1.2210548 3.0650425 4.1229043
000030 1c ec b7 40 2c 7f be 40 0d df b3 3f 17 85 49 40
       5.747572 5.953024 1.4052445 3.1487482

module.backbone.model.layer1.1.conv2.weight f4 [16, 16, 3, 3]
000000 c0 e3 fc 3d 06 32 fd 3c 18 df 85 be 18 0b a3 bc
       0.12348127 0.030907642 -0.2614677 -0.01990275
000010 85 c8 16 be b1 ed de be 96 ff 07 3d 6b de 06 be
       -0.1472493 -0.4354072 0.03320273 -0.13170783
000020 57 95 41 be c6 a9 1d be 9c cc bf 3c 4d cb df 3c
       -0.18904625 -0.15396795 0.023412995 0.027318621
000030 eb bc 17 be e4 8f a5 3d f8 d9 32 3e a7 8c 9e bd
       -0.1481816 0.080840856 0.17465961 -0.07741671
000040 22 8a 08 3e f7 cf e2 3c ce 4f 2e be 76 91 11 be
       0.13333943 0.027687056 -0.1702263 -0.14215645
000050 b1 4b 8e bd d3 a0 ab be e6 8a 8c be 5e 0c 21 bd
       -0.06948031 -0.33521137 -0.2744972 -0.039318435
000060 f8 5c a0 be 6d ab 10 be 5e 14 b9 3d 6f 6d 52 3d
       -0.3132093 -0.14127894 0.09037088 0.051373895
000070 b4 61 79 3e 6f c2 2b 3e a0 f8 db 3d b5 20 74 bb
       0.24353677 0.1677339 0.10740781 -0.003725094
000080 bf 68 1e 3e 08 24 e7 bc d6 f8 c0 bd 2c f3 bf bc
       0.15469645 -0.028215423 -0.09422462 -0.023431383
000090 ff bd ed 3d 69 e6 ae 3b 7a 95 48 3c 19 11 c6 3d
       0.116085045 0.0053375256 0.012242669 0.0967123
0000a0 f0 2c 24 be fc b4 dc bd b1 ff 5d bd ad 95 82 bd
       -0.16032767 -0.107767075 -0.054198924 -0.06376205
0000b0 90 93 68 be 8e 20 8b 3d 57 c0 d1 3c 39 68 01 3b
       -0.2271254 0.06793319 0.02560441 0.001974596
0000c0 97 a3 1c 3e 87 65 80 bd db e7 1b be 9f 4d 3b 3e
       0.1529678 -0.06269365 -0.15225165 0.18291329
0000d0 38 53 e6 bd 85 e2 8d be da 4b e7 bd e1 fb 10 bc
       -0.112463415 -0.27711883 -0.112937644 -0.008849115
0000e0 9f 7e 5e bd d0 c9 9a 3e cf b8 f6 3d 52 e9 3f 3c
       -0.054319974 0.30232096 0.12046968 0.011713343
0000f0 a0 7a 6b 3e 2b 2e 85 bd fd 19 13 3d ee 82 68 3e
       0.22995996 -0.065029465 0.035913456 0.22706196
000100 39 16 82 3e d6 29 37 3e e7 d0 97 bd fb e8 0c 3d
       0.2540758 0.17887053 -0.07412892 0.034401875
000110 f3 77 84 3d 8b 7e d4 3d e7 d3 07 3e 0f 88 34 3e
       0.06468191 0.10375699 0.13264428 0.17630027
000120 fb ec 67 be d5 43 9c be 82 8b e0 bd 3b 69 28 3d
       -0.22648995 -0.30520502 -0.10964109 0.04111598
000130 82 ea 68 be a5 b0 a6 be b4 fa f1 3d b7 9a 09 be
       -0.22745708 -0.32556644 0.11815396 -0.13437925
000140 cf b9 84 be 96 90 9c 3d dd e3 0c bd 8c d9 0d be
       -0.2592301 0.07644765 -0.034396995 -0.13852519
000150 6c 07 a5 bc 52 17 9a bc 62 76 0f bc 7f a6 e4 bd
       -0.02014514 -0.018809948 -0.008756252 -0.11164569
000160 89 d4 82 bd bf f9 40 3d 43 2f 40 3e a6 d8 8b 3c
       -0.06388194 0.047113176 0.18768029 0.01707108
000170 66 b0 ba 3d 45 88 f0 3d 9b c9 60 be d1 18 39 3a
       0.091156766 0.11744741 -0.21951906 0.0007060888
000180 b1 2a 4a bd 8b 89 eb bd f9 83 18 bc 2c 04 df 3d
       -0.04935712 -0.115008436 -0.0093088085 0.108894676
000190 e5 f8 95 be 97 97 68 be ac 9d f1 3d 76 89 49 be
       -0.29291454 -0.22714077 0.11797652 -0.19681343
0001a0 15 12 e4 be 3d 51 06 bd 3f d3 da bd 6e 5a 2a be
       -0.44545045 -0.03279232 -0.10684823 -0.16636059
0001b0 be 33 bd 3e b7 6f a3 3d 3a 79 bb bd d5 c5 98 3e
       0.3695354 0.07980292 -0.091539815 0.29838434
0001c0 7c 8a 44 3e fb 2a 0e 3e ca d8 a4 3d b8 cb ec 3d
       0.19193453 0.13883583 0.08049162 0.11562294
0001d0 1e 03 2b 3e c8 d1 9e 3d 35 17 7a be 2a e4 0f 3d
       0.16700408 0.07754856 -0.24422915 0.035129704
0001e0 d7 a7 28 3e 1f 48 d3 bd 7e bf b3 bc dd b9 0d be
       0.16470276 -0.103164904 -0.021941897 -0.13840432
0001f0 41 0a cf bd 03 aa ca bd 9f f7 a3 bb 8e 4a 21 be
       -0.10109378 -0.098957084 -0.005003884 -0.15751097
000200 43 f7 02 3e 2c 89 ba bb bb 87 21 be dd 0d d2 3d
       0.12789635 -0.0056926217 -0.15774433 0.102565505
000210 96 68 05 bd 95 de fa bd 18 b2 f4 bc b6 31 86 3e
       -0.032570444 -0.122494854 -0.029870078 0.262098
000220 5f fb 7a 3d b3 8d 61 be 33 78 73 3e ef a8 71 3e
       0.061274882 -0.2202671 0.23776321 0.235996
000230 e1 ab 4c be 5b 7d 0b 3e c8 a4 d6 3c 73 0a ea bd
       -0.19987442 0.13622038 0.02620162 -0.11427774
000240 ca c7 c6 3d 1b 8a 5e 3d 26 41 ce 3d 10 e9 e6 bd
       0.097060755 0.054330926 0.1007102 -0.11274922
000250 32 9b 5d bd 4d df f9 bd 3b 49 8c bc 9d 5f 7d bd
       -0.054103084 -0.12200794 -0.017124763 -0.061858762
000260 90 56 91 3d 05 48 2f 3e 68 43 e8 3d c9 6f a3 bd
       0.070965886 0.17117317 0.11340982 -0.07980306
000270 7a 72 56 3e 5a 15 cf 3d 2f fa 33 bd 5d bc d0 3d
       0.20942107 0.10111494 -0.043939766 0.101921774
000280 fe 08 63 3d 33 7e 83 bd 21 e5 c4 3d df 4d 32 3d
       0.055428497 -0.06420555 0.09614015 0.043531295
000290 bd 73 0e bc c0 91 18 be 75 6e 9a bd 40 37 52 be
       -0.008694586 -0.14899349 -0.07540599 -0.20528889
0002a0 6a 35 0e be fb 36 60 bd 1c d7 cf bd 0b 46 3d 3e
       -0.13887563 -0.054739933 -0.10148451 0.1848375
0002b0 fc cc 7c 3d 38 66 c1 bc e3 45 ce 3d 93 2d 15 3e
       0.061718926 -0.023608312 0.100719236 0.14568166
0002c0 b6 b7 1e be 11 8b 19 3e 8c 8a 31 3e 5d 46 ec bd
       -0.15499768 0.14994456 0.17338008 -0.11536858
0002d0 46 41 86 3d f4 0e ea 3d de f3 aa 3b c9 27 85 3d
       0.06555419 0.11428633 0.0052170595 0.06501729
0002e0 ed 33 88 bd a7 e9 53 bd 37 80 4a 3d 96 42 23 3d
       -0.06650529 -0.0517365 0.04943868 0.039858423
0002f0 e0 b9 3b 3d 0b b8 34 be fc 13 6e bd 48 18 e7 bd
       0.04583156 -0.17648332 -0.058124527 -0.11283928
000300 10 11 06 bd b1 55 47 3d 7a c9 8e 3c 69 1c de bc
       -0.032731116 0.048665706 0.017430056 -0.027113156
000310 f9 98 f1 3c c1 65 a0 3c 87 be 3b 3e e9 1b 1d 3d
       0.029491888 0.01957977 0.18334399 0.038356695
000320 83 5b b3 3d e4 51 3c 3e 58 f7 b9 bd de 19 15 3d
       0.08757689 0.18390614 -0.0908038 0.036401622
000330 54 42 c1 3d fb c4 57 bd da f7 17 bb f7 93 4e be
       0.09436479 -0.05267809 -0.0023188503 -0.20173632
000340 d7 70 85 bd 88 25 27 bd 64 ea 88 be 7c 22 1e be
       -0.06515663 -0.040807277 -0.26741326 -0.15442842
000350 b3 75 16 be 8f 20 a7 be 3b 05 54 be 1a a1 88 be
       -0.14693336 -0.32642028 -0.2070512 -0.2668541
000360 fc d7 8f 3d b2 be 5f 3c 03 ea 09 be 2c 6a 28 3e
       0.070236176 0.013656305 -0.13468175 0.16446751
000370 dc 01 f5 bd 4e 67 c5 3d d5 3c 00 3d ca cd e9 bd
       -0.11963245 0.096388444 0.031308014 -0.11416204
000380 af e8 3a 3e f0 20 85 bb a8 c9 11 be 5b af 1b bd
       0.18252824 -0.0040627643 -0.14237082 -0.03800903
000390 ad 00 97 3d 57 24 c3 bd 32 a3 d6 bd 03 2e 17 3e
       0.07373176 -0.09528416 -0.10480346 0.14763646
0003a0 1a f4 b2 3d 8b f3 3f bd 58 4c 1b 3c 33 a2 25 bc
       0.08737965 -0.04686312 0.009478651 -0.010109472
0003b0 4c 4c eb bc b4 51 c5 3d fc 16 ed 3d 52 f4 22 3e
       -0.028722905 0.09634724 0.115766495 0.15913513
0003c0 e5 be 31 bc 8b dc e9 bd 36 ce f4 3c 84 c5 1e bd
       -0.010848735 -0.11419018 0.029883485 -0.038762584
0003d0 96 21 48 3b 55 b8 56 be 66 53 af bd 6f d0 2b 3d
       0.0030537597 -0.20968755 -0.08560829 0.041946825
0003e0 3a 2f 77 be 15 72 e9 bc 4b 9c 7c 3c 97 d7 6c bd
       -0.24139109 -0.028496781 0.0154181225 -0.05782279
0003f0 40 12 08 be b3 45 3a be 58 61 a5 bd 41 98 97 be
       -0.13288212 -0.1819065 -0.080752075 -0.29608348

module.backbone.model.layer1.1.bn2.weight f4 [16]
000000 e7 0e d7 3e 4a c7 7a 3e 20 b1 4d 3f 97 18 0d 3f
       0.42003557 0.24490085 0.80348396 0.55115646
000010 27 6a 52 3f 5e 83 61 3f ad ad 0d 3f 8a 1c f0 3e
       0.82193226 0.88091075 0.55343133 0.46896774
000020 ef 2a b0 3e 98 f6 56 3f ce ee 32 3f b7 01 3e 3e
       0.34407756 0.8397002 0.6989564 0.18555342
000030 dc 3b 60 3e 25 61 04 3f 13 b0 d6 3e 3e b6 cf 3e
       0.21897835 0.5171073 0.4193121 0.40568727

module.backbone.model.layer1.1.bn2.bias f4 [16]
000000 f3 95 47 3d 71 89 95 3e 05 05 02 be ac 28 21 bf
       0.048726987 0.29206422 -0.12697227 -0.62952685
000010 cb 40 65 bf cf ed 24 be 43 ea 89 3c c0 7f cf bd
       -0.8955199 -0.16106342 0.016835338 -0.10131788
000020 fd b8 9f 3e 75 13 08 bf a7 ff ab 3e cc 7a af 3e
       0.31195822 -0.5315469 0.33593485 0.34273374
000030 8f a1 3f 3e 9c b5 36 be 20 9a 3c 3e a1 ec a3 3d
       0.18713973 -0.17842716 0.18418169 0.08004118

module.backbone.model.layer1.1.bn2.running_mean f4 [16]
000000 e3 90 87 bf 7a 80 c8 be 7f ff 97 bf 48 4a 72 3e
       -1.0591091 -0.3916052 -1.1874846 0.23661149
000010 2b ea 22 bf 70 0e 14 bf f7 5f f0 bf 93 bd 30 bd
       -0.6363856 -0.5783453 -1.8779286 -0.043149542
000020 e0 49 2d 3d 98 cb fa be a5 b9 f1 bf 25 fb 4d bf
       0.04230678 -0.48983455 -1.8884779 -0.8046134
000030 65 0a 3b bf a9 5d 12 bc 25 ca 65 3f f3 64 de bd
       -0.73062736 -0.008933463 0.89761573 -0.10859098

module.backbone.model.layer1.1.bn2.running_var f4 [16]
000000 d0 9a da 3f 75 36 43 3f 9f 78 f3 3f df 08 1b 40
       1.7078495 0.7625497 1.9021186 2.4224164
000010 79 8a 29 40 c4 31 3b 40 77 21 09 40 14 91 b6 3f
       2.6490767 2.9249125 2.1426675 1.4263024
000020 d4 ac aa 3f a6 25 48 40 97 c8 53 40 7c 91 77 3f
       1.3333993 3.1272979 3.309118 0.96706367
000030 f9 b7 37 3f 76 40 bd 3f b1 7b 84 3f 29 4d e8 3f
       0.71765095 1.4785297 1.0350248 1.8148547
